checkpoints/stage2_pCR_predict.pt (torch, 605503 bytes, 98 tensors)

shared_cluster_centers f4 [5, 32]
000000 d1 8a 1c bf 70 01 e2 3e 70 15 bb 3d 44 67 16 bf
       -0.6114932 0.44141722 0.09134948 -0.5875132
000010 fa 63 1c bf 5b f3 48 3f a6 6c f8 be d1 42 2c be
       -0.6109005 0.7849633 -0.48520392 -0.16822363
000020 f4 5b 42 3e 47 86 cd be 9c 9c 74 be 4f d7 15 bf
       0.1898039 -0.40141508 -0.23887867 -0.5853166
000030 a1 64 cd be da 94 5a be 40 79 22 3f 04 b3 e6 bd
       -0.40115836 -0.21345845 0.6346626 -0.11264613
000040 a6 09 17 be 85 46 8b be e7 da 5e be 89 14 cc be
       -0.14749774 -0.2720224 -0.21763192 -0.39859417
000050 66 f8 10 bf 72 c4 69 3f 65 d6 e7 bd 54 fc d0 be
       -0.56629026 0.91315377 -0.113201894 -0.4081751
000060 90 16 40 40 4a ea 14 bf 40 da 99 be 7a e4 e8 3e
       3.001377 -0.58169997 -0.30049324 0.45486814
000070 48 d6 62 3f 39 b2 fe 3e 60 bd 10 bd b1 d8 e4 be
       0.8860822 0.49745348 -0.035336852 -0.44696572
000080 4e 9f 1b bf 04 e8 eb 3e 50 ec b2 bb 97 e7 00 bf
       -0.60789955 0.4607545 -0.0054602996 -0.5035338
000090 be 9a 1c bf 71 1e c5 3d 70 6b bf 3e 0b cc 6d 3e
       -0.6117362 0.09624947 0.37386656 0.23222367
0000a0 5a a2 ef be 30 07 75 3f 66 05 4e 3f fd 89 11 bf
       -0.46803552 0.9571409 0.8047699 -0.5685118
0000b0 6b d0 dc be a2 f6 4c be 72 04 c8 bd 28 0d 30 be
       -0.4312776 -0.20015958 -0.09766473 -0.17192519
0000c0 39 bc 69 be bf a2 0d bf 1e ba 47 3f e7 d8 25 3e
       -0.22825707 -0.55326456 0.7801837 0.16196023
0000d0 96 bd 0f bf 7d 97 b2 3f 10 c4 05 3f f2 2c 94 3e
       -0.5614866 1.395248 0.5225229 0.2894054
0000e0 ab cf d8 3f 70 41 da bd 92 20 24 3e e0 a0 17 bf
       1.6938375 -0.106570125 0.1602805 -0.5922985
0000f0 d2 47 1a bf 86 96 17 bf fe f6 1b bf 39 1f e5 be
       -0.6026584 -0.59214056 -0.60923755 -0.44750383
000100 bb 9f 1b bf aa df eb 3e 50 72 b1 bb d4 e6 00 bf
       -0.60790604 0.4606908 -0.0054152384 -0.50352216
000110 1c 9b 1c bf c1 39 c5 3d 99 64 bf 3e 86 ca 6d 3e
       -0.6117418 0.09630156 0.37381437 0.23221788
000120 07 a1 ef be 46 05 75 3f d2 02 4e 3f d2 89 11 bf
       -0.46802542 0.9571117 0.80473053 -0.5685092
000130 2c cc dc be 2b e9 4c be f2 1e c8 bd 57 0a 30 be
       -0.4312452 -0.20010822 -0.09771527 -0.17191444
000140 66 b8 69 be 66 a3 0d bf 36 b8 47 3f ec d9 25 3e
       -0.22824249 -0.5532745 0.7801546 0.16196412
000150 f4 bc 0f bf 88 95 b2 3f 90 ce 05 3f f1 2b 94 3e
       -0.56147695 1.3951883 0.52268314 0.28939775
000160 f8 cf d8 3f ee 28 da bd 67 12 24 3e 5c a1 17 bf
       1.6938467 -0.10652338 0.16022645 -0.5923059
000170 5c 48 1a bf 37 97 17 bf 5e f7 1b bf ae 20 e5 be
       -0.6026666 -0.5921511 -0.6092433 -0.44751495
000180 b9 9f 1b bf c8 df eb 3e e0 77 b1 bb d6 e6 00 bf
       -0.6079059 0.4606917 -0.0054159015 -0.5035223
000190 1b 9b 1c bf 60 39 c5 3d ae 64 bf 3e 8c ca 6d 3e
       -0.6117417 0.09630084 0.373815 0.23221797
0001a0 0d a1 ef be 4b 05 75 3f de 02 4e 3f d2 89 11 bf
       -0.4680256 0.957112 0.80473125 -0.5685092
0001b0 3d cc dc be 5c e9 4c be 8c 1e c8 bd 62 0a 30 be
       -0.4312457 -0.20010895 -0.09771451 -0.1719146
0001c0 72 b8 69 be 64 a3 0d bf 3c b8 47 3f e4 d9 25 3e
       -0.22824267 -0.5532744 0.78015494 0.161964
0001d0 f6 bc 0f bf 92 95 b2 3f 6c ce 05 3f f6 2b 94 3e
       -0.56147707 1.3951895 0.522681 0.2893979
0001e0 f8 cf d8 3f 45 29 da bd 94 12 24 3e 5a a1 17 bf
       1.6938467 -0.10652403 0.16022712 -0.5923058
0001f0 58 48 1a bf 35 97 17 bf 5e f7 1b bf ab 20 e5 be
       -0.6026664 -0.592151 -0.6092433 -0.44751486
000200 11 52 22 bf 2c 10 9d be ae 91 0d 3f d6 8a 23 bd
       -0.63406473 -0.306764 0.55300415 -0.039927326
000210 6e 9f d9 be f7 61 26 3f 8a 5c 11 bf be 19 0b be
       -0.42504448 0.6499323 -0.5678183 -0.13584039
000220 60 70 12 3c 74 ef 47 3e 85 ee 26 be 52 8d 02 3d
       0.008937925 0.19524938 -0.16301925 0.031873055
000230 21 3d f5 3d ee cf 99 3e 78 b3 cd be 56 d3 19 be
       0.1197455 0.3004145 -0.40175986 -0.15022025
000240 bc 24 a9 bd 3d 49 15 bf f9 5d 1c be 86 c7 4d 3e
       -0.0825896 -0.5831488 -0.15270223 0.20095643
000250 56 f3 a2 bd a0 b9 0a 3f 0c 7d 2b 40 ee 40 dc bc
       -0.07956569 0.5418949 2.6795073 -0.02688643
000260 15 12 c4 3f 81 cd f4 3e 22 60 08 bf 7c 3f 20 bf
       1.5318018 0.47813037 -0.5327169 -0.6259687
000270 b2 3d 24 bf 42 3a 23 bf 36 f9 1e bf 1e 4d 01 bf
       -0.6415664 -0.6376077 -0.62099016 -0.50508296

intra_modal_convs.0.convs.<cell___c_c___cell>.lin_key.weight f4 [64, 74]
000000 3e d7 57 3b 70 0e ec 3c e3 88 8e 3c 86 41 f5 3c
       0.003293469 0.028815478 0.017399257 0.02993847
000010 a8 36 93 3d 45 ea b6 3d 49 db 85 bc 6c 12 48 3d
       0.07188159 0.08931402 -0.016339915 0.048845693
000020 e4 c0 fa bb cb a8 f8 3c e2 1c 95 bd 71 51 fb bc
       -0.007652389 0.030353924 -0.072808996 -0.030678483
000030 87 63 9f 3b 87 b1 56 bd d9 65 87 bc 71 e5 6c ba
       0.0048641595 -0.052415397 -0.016528057 -0.0009036875
000040 fd 4b 85 35 7d c0 b8 3d 1c ba 9b 3d ed 92 b3 3d
       9.931388e-07 0.09021089 0.07603857 0.08768258
000050 70 be 56 bc f1 b7 4d bd c3 bb 1d bd 40 7c 61 3d
       -0.013106927 -0.05022425 -0.03850914 0.055050135
000060 b0 48 42 3d b3 2f 16 bd 7c 03 34 bc 7a 8c 65 bd
       0.0474326 -0.036666583 -0.010987159 -0.056042172
000070 75 3e 2c bd 34 52 df bc 27 a5 f1 bc fc 91 40 3d
       -0.04205175 -0.027260877 -0.029497696 0.04701422
000080 f4 89 cb 3c d1 42 aa bc c2 65 6d bd f6 78 83 bc
       0.024846055 -0.020783814 -0.057958372 -0.01604889
000090 b4 f5 fb bc 1f 55 f3 3c 16 e4 88 bc 75 15 bc 3c
       -0.030756809 0.029703675 -0.016710322 0.02295945
0000a0 46 54 4c 3d 94 e5 29 3b 57 67 03 3d a8 93 64 bd
       0.049885057 0.0025924193 0.032080974 -0.05580488
0000b0 5f fc 85 3b fe 62 8b 3d 93 98 01 bd c8 d2 7a bd
       0.004088923 0.06805991 -0.031639647 -0.061236173
0000c0 15 9f 02 3d 86 c2 45 bd c4 2a 20 bc 65 8e 7f bd
       0.031889994 -0.048281215 -0.009775821 -0.062391657
0000d0 ab 94 0c bd a4 b9 be bc 45 24 64 3d 80 47 7e 3c
       -0.03432147 -0.02328188 0.05569865 0.015519977
0000e0 ea 4c 82 bd a1 74 6f bb b4 3f 86 bc c8 c1 92 3d
       -0.063623264 -0.0036538022 -0.016387798 0.07165867
0000f0 62 0d f9 3c 4a 84 60 3d 8a 3a 7b bd 00 1c 5a 3d
       0.03040189 0.05481366 -0.061335124 0.05324936
000100 3f 70 71 3c 2b 87 b4 bc fb 49 af bd fb 91 c1 3d
       0.014736234 -0.02203711 -0.085590325 0.09451672
000110 73 dc cc 3c c9 a0 9b 3b 06 ff a9 bc 43 b8 66 b8
       0.025007462 0.0047493917 -0.020751487 -5.500788e-05
000120 9b 7c a3 3b 22 6a 13 bb 0b df af bc 04 e8 20 bd
       0.0049892194 -0.002249368 -0.02146866 -0.039283767
000130 02 91 bf 3d 00 f9 dc bd 64 a3 d9 bc f0 73 d9 ba
       0.0935383 -0.107896805 -0.026567169 -0.0016590338
000140 04 eb 37 3d e8 66 93 bc d6 84 f6 bd 7b f3 5d 3d
       0.044901863 -0.017993405 -0.12037055 0.05418728
000150 cb 9f 8c 3d 65 8c 33 3c 60 ca 1b bc 93 f2 4f bd
       0.068664156 0.010958766 -0.009508699 -0.050768446
000160 69 87 01 bd 9d 4c 6c 3a 4c ec 2a 36 58 91 66 bd
       -0.031623278 0.0009014102 2.5469517e-06 -0.056290954
000170 c5 71 94 3d 8c 91 8e 3d ad ed 93 bd cf 47 1f bc
       0.07248262 0.069613546 -0.072230674 -0.00972171
000180 0d 08 ac 3c 84 88 03 3d 22 83 73 bd 5e 79 d9 bc
       0.020999933 0.032112613 -0.05945123 -0.02654713
000190 7e f6 91 3c ac 42 72 bd b7 5f dd bc 2c 69 ce bd
       0.017817732 -0.059145615 -0.02702318 -0.10078654
0001a0 71 37 d8 3c c7 51 9b 3c b6 12 da bd 3b 7d 4d 3d
       0.026393624 0.018959893 -0.106481 0.050168257
0001b0 f9 24 2a 3d 9b 1e 7b bd 24 ef 61 bd 85 e5 be bd
       0.041539166 -0.061308485 -0.055159703 -0.09321121
0001c0 ac 0a 90 bd 23 ba 9f 3c cc 32 0d bc fc 1f 38 3d
       -0.070332855 0.019497937 -0.008618068 0.044952378
0001d0 f1 4a 22 bd 2e fb 9d 3d 04 1d 39 bd d9 cc a8 bd
       -0.03962225 0.07713924 -0.045193687 -0.082421966
0001e0 e1 30 59 bd 3f 35 d1 bd 70 c2 3a 3d d7 e5 f4 3c
       -0.05302513 -0.10215234 0.045595586 0.029894752
0001f0 b3 8b ab 3a 62 19 aa bc 46 d4 9d 3c 3f c4 d0 bc
       0.0013087898 -0.020764057 0.019266259 -0.025484202
000200 b8 33 88 bd 84 de de bd ef 10 b3 3c 94 47 b6 bd
       -0.066504896 -0.10882285 0.02185866 -0.08900371
000210 af 6f 15 3c 20 d9 bc bd 78 2c 5e 3d 00 c5 23 3d
       0.009120866 -0.09221101 0.054241627 0.039982796
000220 f8 dd ab 3d 93 f7 68 bd cf 38 96 3c e9 e9 91 bd
       0.083919466 -0.05687673 0.018337635 -0.07124693
000230 ca 87 72 3d 2b 58 d5 bd 25 60 08 3d 56 e0 1d bc
       0.05921153 -0.10417207 0.033294816 -0.009636005
000240 14 45 cc bc 4c 5f 1e 3b 06 cc 31 3c fe 92 ea 3b
       -0.024935283 0.0024165688 0.010851866 0.007158636
000250 a6 4f 79 3c a0 50 c6 3c f3 8d b5 bd 30 62 6d 3b
       0.015216744 0.024208367 -0.08864965 0.0036221854
000260 e6 04 48 3d 0b b5 8b 3d be 48 38 bd f0 1b 24 bd
       0.048832797 0.068216406 -0.044991247 -0.040065706
000270 4e b1 24 bd 40 6d 9a 3c 91 87 b5 bd 94 80 3a 3c
       -0.040208153 0.018850923 -0.08863748 0.0113831945
000280 d1 60 8e 3d 51 90 e1 bd 25 6c e4 3c 05 e3 58 3a
       0.0695206 -0.11013854 0.027883599 0.00082735746
000290 a5 e1 00 36 bd 26 34 bd 2b 60 1a 3d 20 64 00 3d
       1.9204829e-06 -0.043982256 0.03768937 0.031345487
0002a0 39 7b 89 3c a8 cc 2f bc 4f bd 8e bd 5e 54 f3 3c
       0.01678239 -0.010729946 -0.069697015 0.029703315
0002b0 ee 4e 1c bb 07 73 b1 3d 78 8f 99 3d b5 ac 2e bd
       -0.0023850757 0.08664518 0.074980676 -0.042645175
0002c0 48 9b 21 3d 42 ca 98 3c 50 63 bf 3c 97 65 28 bd
       0.03945473 0.018651132 0.023362786 -0.04111251
0002d0 b0 00 3f bb 00 c2 e1 3c 87 3d f8 bd 1e 43 15 bd
       -0.0029144697 0.027558327 -0.121211104 -0.03644096
0002e0 3f 46 7b 3d c4 ab 59 bc 7b 51 84 bc 28 d3 06 bd
       0.06134629 -0.013285581 -0.016152134 -0.032916218
0002f0 1f 03 f2 3d 32 a4 7c 3d a5 da 43 bd a6 ce ab 3c
       0.118170016 0.061680026 -0.047815938 0.020972561
000300 aa e0 ae bd 6d ff b0 bc 30 4a 23 3d ba 3a 01 bd
       -0.08538945 -0.021606172 0.039865673 -0.031550147
000310 af 40 9c 3d fd 8d f3 3a fb c7 86 bc e5 c4 6b bd
       0.07629525 0.0018581745 -0.01645278 -0.05756082
000320 c8 da 06 3d fe 4f 23 3d c5 c4 79 bb 25 3f c2 bd
       0.03292349 0.03987121 -0.0038111669 -0.094847
000330 52 9e 1a 3d 81 00 51 3d 9c 15 42 3d ce 84 95 bd
       0.037748642 0.05102587 0.04738389 -0.07300721
000340 59 35 c2 bc eb 6e b5 ba 75 68 39 3d 05 a3 1e 3d
       -0.023707079 -0.001384226 0.045265634 0.038729686
000350 dc 84 7d 3b cc 3b 34 bd a1 7a 95 3d 42 7c 74 3d
       0.0038683927 -0.04400234 0.0729878 0.059688814
000360 55 f6 3d 3d 9a 7c 34 bc 3b cc 6f bc 0f 54 3e ba
       0.0463775 -0.011016035 -0.014636095 -0.00072604505
000370 88 d6 bb 3a 83 d0 4c 3d 2d 39 53 bc fc a5 99 bd
       0.0014330903 0.05000354 -0.01289205 -0.07502362
000380 6e b2 c5 3b e2 92 74 bc 14 da f4 3d 05 76 8b bd
       0.0060332334 -0.014927598 0.119556576 -0.0680962
000390 5a 74 60 3c 48 a9 82 bd b6 6a 8a bb 40 77 2c bd
       0.013699615 -0.06379944 -0.0042241467 -0.042105913
0003a0 c9 fb c8 bd ba 71 f3 3c 5d ec 38 bd b2 f1 ff bc
       -0.09813649 0.029717315 -0.04514729 -0.031243179
0003b0 04 3d dd bd 0e 65 85 3a aa c1 84 b4 26 b8 1d 37
       -0.108026534 0.0010177211 -2.4727825e-07 9.400805e-06
0003c0 1f b5 f4 bb 20 ef 61 3b ce 08 4c 3d 7c 08 bb bd
       -0.0074678804 0.0034474805 0.049813084 -0.09132478
0003d0 21 19 2e 3b 00 8c 97 bd 5c 60 95 bc 88 1d 75 3d
       0.002656527 -0.0739975 -0.018234424 0.059842616
0003e0 f1 3b 25 3d 9c d5 a8 3d 05 74 03 3d 3e 7d 36 3d
       0.040340368 0.08243868 0.032093067 0.044553034
0003f0 7d e1 22 3d 35 de ab 3a 33 bf 99 3d f5 ca ca 3d
       0.039765824 0.0013112488 0.075071715 0.09901992

intra_modal_convs.0.convs.<cell___c_c___cell>.lin_key.bias f4 [64]
000000 e5 0b e6 b0 67 6b 4f 33 77 56 80 b2 cc 5d eb b3
       -1.6738083e-09 4.8293625e-08 -1.494048e-08 -1.0960102e-07
000010 a0 8e 00 33 64 e5 a4 b3 cb 1a 3f 33 c5 10 b4 33
       2.993204e-08 -7.678571e-08 4.449502e-08 8.3849535e-08
000020 53 60 bf 33 35 53 be b3 64 ee 83 32 55 bb ab 32
       8.911652e-08 -8.8627e-08 1.5358815e-08 1.9992209e-08
000030 8f 7c 4f 34 7d c2 ba 32 2b f8 b6 b3 88 40 df 30
       1.9323691e-07 2.1741693e-08 -8.520177e-08 1.6243726e-09
000040 b6 01 00 33 a9 05 30 b2 c2 ad 1d 32 fe b1 65 b2
       2.980388e-08 -1.0245835e-08 9.178111e-09 -1.3370025e-08
000050 be 70 37 b3 ec 60 63 32 5c a5 d8 b2 53 b0 50 b3
       -4.2710546e-08 1.32351765e-08 -2.5220906e-08 -4.858914e-08
000060 22 a0 19 33 b3 97 3e 33 dc 53 11 33 9d f8 9f b2
       3.576873e-08 4.4375792e-08 3.3836713e-08 -1.8623092e-08
000070 f5 42 4f b3 de 5b 85 b1 fa f0 39 b3 13 d3 69 33
       -4.825684e-08 -3.8812535e-09 -4.3292836e-08 5.444151e-08
000080 73 43 ca b2 00 a6 3e 34 1f cb d7 32 bc aa e8 33
       -2.3546567e-08 1.775552e-07 2.5121663e-08 1.0834398e-07
000090 e3 e5 da 31 ee 9f 85 32 cf fa e0 30 3b 7c b1 b3
       6.37077e-09 1.5555965e-08 1.6369429e-09 -8.264802e-08
0000a0 8d f4 35 33 4e 14 27 b3 b6 fa 2d 32 45 42 09 32
       4.2364764e-08 -3.8901184e-08 1.012693e-08 7.9895175e-09
0000b0 d6 3c 46 32 db 73 72 b2 1e d6 d3 b3 a3 26 14 33
       1.1538949e-08 -1.4112596e-08 -9.864401e-08 3.4494075e-08
0000c0 a2 04 89 32 49 52 28 34 d4 ce 15 b4 68 35 00 b4
       1.5951006e-08 1.5676154e-07 -1.395195e-07 -1.1940358e-07
0000d0 39 46 48 b3 aa 7a 11 34 f0 72 73 b4 2d e1 55 32
       -4.6629996e-08 1.3548802e-07 -2.2672953e-07 1.2449431e-08
0000e0 62 5d da b3 9a 88 54 33 f0 59 6b b3 d0 78 a5 b3
       -1.0168402e-07 4.9484335e-08 -5.4797e-08 -7.705387e-08
0000f0 90 52 0d b3 53 f9 cc 33 33 7f 27 b3 28 b3 59 b3
       -3.290421e-08 9.544842e-08 -3.8998405e-08 -5.068719e-08

intra_modal_convs.0.convs.<cell___c_c___cell>.lin_query.weight f4 [64, 74]
000000 df f8 ed 3c 6e f9 96 bd e4 27 52 bd e1 27 2e bd
       0.029049335 -0.07371794 -0.051307574 -0.0425185
000010 c7 c0 0e bd 9c fc db bc c2 6b 13 3d f3 49 95 3d
       -0.034851816 -0.026853852 0.035991438 0.07289495
000020 07 33 92 bd 9a 6b 90 3d eb f6 bc 3b be b6 59 bd
       -0.07138639 0.07051773 0.0057667396 -0.053152792
000030 ea c2 10 bd 56 52 93 bc 2e 40 ad 3d cf 29 94 b2
       -0.035342135 -0.017983597 0.08459507 -1.724848e-08
000040 88 12 83 30 f1 a1 86 bd 91 42 76 bd e6 2d 5a 3d
       9.536771e-10 -0.065738566 -0.060122076 0.05326643
000050 04 9e 33 3d 66 1d 1b bb 2d fd 1b bd 17 dc ae 3c
       0.043851867 -0.0023668646 -0.038083244 0.021345181
000060 02 05 32 3c 37 45 91 bc a6 6a 81 bd b4 82 ac bc
       0.010865452 -0.0177332 -0.0631917 -0.021058418
000070 f8 f6 6e bd e5 88 39 bd 26 f7 8f bc 6c 54 c6 3a
       -0.058340997 -0.04529657 -0.017573904 0.0015131361
000080 de 43 62 3d ab cf 6a 3d 31 f0 9e 3d 22 47 bc bc
       0.055240504 0.057326954 0.077606566 -0.022983138
000090 33 ed ae 3d ee e2 97 3d 97 ba aa 3d 29 27 40 3d
       0.08541336 0.0741633 0.083363704 0.046912346
0000a0 1d 5d 9f bd 51 bd 0e bd 13 38 a1 3d 65 0e a9 3d
       -0.07781432 -0.034848515 0.078720234 0.08254699
0000b0 2b 73 2c 3d 00 50 0b 3d 31 7a 88 3d cc b6 06 3d
       0.04210202 0.03401184 0.06663931 0.032889172
0000c0 49 16 a6 3c 55 b4 9f 3c 45 1d 1c bd a3 0b 8b bd
       0.020274298 0.019495169 -0.03811385 -0.06789329
0000d0 d3 53 17 bd eb ca 83 3d 99 70 18 bc 66 ad be bc
       -0.036945175 0.06435188 -0.009304189 -0.023276042
0000e0 c6 2c 7a 3c 0e c9 82 3d 6c b2 77 bd e8 fe 88 bd
       0.015269464 0.063860044 -0.06047289 -0.066892445
0000f0 8a 4b ad 3c 98 84 83 bd eb 9d 02 3c 28 89 40 3d
       0.021154184 -0.064217746 0.007972221 0.047005802
000100 f4 6f 37 3c cc 22 09 bd be 88 2d 3c 2a b3 b7 bd
       0.011196125 -0.03348045 0.010591684 -0.0896972
000110 67 7a 88 3d 17 63 c9 3d a0 07 5f bd 66 7d 91 ba
       0.066639714 0.09833353 -0.05445063 -0.0011099994
000120 d8 1b aa 3b 8f 2d 4c bd e5 50 5e bc 54 68 e5 3c
       0.0051913075 -0.049848136 -0.013569091 0.02800385
000130 db 29 9d 3d 24 10 0a be 51 8f 7f bd 7d 7b 1b bb
       0.07673999 -0.1348272 -0.062392537 -0.0023724728
000140 ba 8e b5 3d c2 ba 9e 3b 24 58 91 3d 6c 3f 62 3b
       0.088651136 0.0048440406 0.070968896 0.0034522666
000150 ab 58 ee bd f2 3e 03 be c5 d0 9e 3d 75 06 86 3d
       -0.11638006 -0.1281698 0.077546634 0.065442
000160 35 67 ea bd df 44 82 32 ad 9d 2e b3 67 e8 ec 3c
       -0.114454664 1.516531e-08 -4.0655937e-08 0.028919412
000170 3f 89 e9 bd ae ee c1 3c 89 7b 0a bd f1 0f 9a 3c
       -0.11403131 0.023673382 -0.03380922 0.01880643
000180 2e c2 2d bc 00 5b 55 bc 8f 00 57 3d 8a 72 d0 bc
       -0.010605378 -0.013022184 0.052490767 -0.025445241
000190 ac 86 c7 3c d2 11 a5 3d 2d 72 8c bd 90 bc 9a bc
       0.024356209 0.080600396 -0.06857715 -0.018888742
0001a0 f8 25 92 bd e3 e4 67 bd 95 df 5f bd bb 9a c3 3d
       -0.07136148 -0.056614768 -0.054656584 0.09550997
0001b0 7f e2 bb 3d 06 2b 4c 3d e7 5d c6 bd e9 d0 16 3d
       0.0917406 0.049845718 -0.09685879 0.036820326
0001c0 4a 90 3e 3b af 14 a3 bd 15 01 5d 3c 60 19 ec 3c
       0.0029077702 -0.079629295 0.0134890275 0.028820693
0001d0 9b cb 1c 3d eb 31 82 bd 8c 7a a7 3d e9 3b 9d 3d
       0.03828011 -0.06357177 0.08177671 0.076774426
0001e0 e6 1c ab 3c 6a 1c 0d 3c 92 78 f1 3c 16 46 86 3d
       0.020887803 0.0086127315 0.029476438 0.065563366
0001f0 ac dc 06 bc de 46 6c bd 3a bc 1a bd 03 7f 23 bd
       -0.008231323 -0.05768477 -0.037777163 -0.03991605
000200 6f 8f 06 bd 0d 20 d9 bd 0d 5b ac bd ad df d5 3d
       -0.032851633 -0.10601816 -0.08415804 0.104430534
000210 30 9e 4f 3d 85 ad 47 bc 99 41 44 bd 9a 2f d4 bd
       0.05068797 -0.012187366 -0.04791412 -0.10360642
000220 7a e8 2b bc da 9d 59 bc 59 09 6d bd de 15 84 3d
       -0.010492438 -0.013282264 -0.057870243 0.06449483
000230 4d e3 99 bd 68 6e 45 3c 96 43 1b bd 5d e7 cc bd
       -0.07514057 0.012050249 -0.03790625 -0.100050665
000240 25 40 62 3d c6 6a 8b bc 31 3d 42 bc 52 c9 bb 3d
       0.055236954 -0.017018687 -0.0118554095 0.09169258
000250 e8 a1 a6 bd b2 d3 01 bd 9c f6 f7 bc fd 77 30 3c
       -0.0813635 -0.03169603 -0.03026896 0.010770795
000260 a9 77 e9 bc 00 c3 08 3d 2c 49 26 bb 7b 78 91 3c
       -0.028499441 0.03338909 -0.0025373204 0.017757645
000270 4c ea 92 3c 3c 07 8b 3d a6 98 62 bd 62 84 25 bd
       0.017933987 0.06788489 -0.05532136 -0.040409453
000280 40 4e 86 bd d2 aa c0 3d fe aa 9c 3d 27 c0 1d 32
       -0.06557894 0.094075814 0.07649802 9.182293e-09
000290 f3 9a 71 b2 71 06 4f bc 5b 5a c3 bc 1a 0d 8c 3d
       -1.4063278e-08 -0.012635813 -0.023846796 0.068384364
0002a0 f3 29 02 3d 3e 5f 3e 3d c2 18 d6 bc 97 5b ae bd
       0.031778287 0.04647755 -0.026134852 -0.08513563
0002b0 5e 34 63 bd 0e 1e 0a bd 6b f8 ac bd 3f 98 2f bd
       -0.055469863 -0.03372007 -0.084458195 -0.042869803
0002c0 b2 75 2f bd 6a 6d 93 3d 41 07 5c bd 2d f8 cc bc
       -0.042836852 0.071986035 -0.053717855 -0.025020683
0002d0 0b e8 f9 bb d0 63 e1 3c 3b 1a 69 bd af ec 24 3d
       -0.0076265386 0.027513415 -0.05690978 0.04026478
0002e0 5c b4 8c 3d 27 ab 7d bb 16 4c 77 3d f5 c6 9d 3d
       0.06870338 -0.003870675 0.060375296 0.07703964
0002f0 33 9d 87 3d be eb 5d bd a7 17 33 3c e3 37 60 bd
       0.0662178 -0.0541799 0.010930932 -0.054740798
000300 d9 4a 4a bc 9c e6 3b 3d 6a 8b 24 3c 5a 81 ed 3c
       -0.012346947 0.045874223 0.0100430045 0.028992344
000310 2b d5 b4 bc a9 27 7b bd 6d af af 3d 11 4f 9f bc
       -0.022074303 -0.06131712 0.08578382 -0.019446881
000320 e9 d5 8b bd 08 e1 6b bd ad cd dd 3c 40 7a 18 3b
       -0.068279095 -0.057587653 0.027075613 0.0023266226
000330 12 3c 7d bd 1b 6d 4d 3d 0f 7c 81 bd 32 35 cc bd
       -0.061824866 0.05015288 -0.063224904 -0.09971084
000340 56 aa 8b 3d bf d5 be 3d d9 e6 7d bd 19 5e 80 bd
       0.068195984 0.093181126 -0.06198773 -0.06267948
000350 37 75 8d 3d 12 a0 56 bd 90 a2 2c 3d c5 c8 8d bd
       0.069071226 -0.05239875 0.04214722 -0.069230594
000360 4d a5 95 3d 7f 92 45 bd 81 41 5c 3d e0 0d 6c ba
       0.07306919 -0.048235413 0.053773407 -0.0009004753
000370 bb 03 91 3a 70 6f a0 3d 61 f8 1b 3d ed 8a ec 3d
       0.0011063734 0.07833755 0.03807867 0.115499355
000380 57 96 ff 3c 9f d9 c0 3d 6a 48 c8 3c 3a d1 3e 3d
       0.031199617 0.09416508 0.024448592 0.046586253
000390 c3 a2 a5 bc f2 32 64 3d 4f 5d a2 3d 3f ba 09 3c
       -0.020219212 0.055712648 0.079279535 0.008406221
0003a0 c9 ab f6 3d 13 5a 04 bc 3c d0 ae bd d5 4c 80 3c
       0.12044484 -0.008078116 -0.08535811 0.015661636
0003b0 d3 77 68 bb 72 b6 d5 33 26 ed 44 2f e1 ea 89 3d
       -0.0035471811 9.951772e-08 1.7910348e-10 0.06734253
0003c0 3b 8e a5 3d 0c 3b 72 3c 0e ec d4 3c 67 cc 14 3d
       0.08083769 0.014784586 0.025991466 0.036327746
0003d0 01 1c d9 ba 5f 8b ef bc 9a 83 b1 bd 74 6f 9d 3c
       -0.0016564132 -0.029241262 -0.08667679 0.019218184
0003e0 e2 44 79 bd 6b fd a1 3c 92 5b 43 3b d3 fd f7 3c
       -0.060856707 0.01977416 0.0029809219 0.0302724
0003f0 ee 1d a2 bd 3a 5f e0 3c d6 54 80 3d 5b fa 80 bd
       -0.07915865 0.027389158 0.06266181 -0.062977515

intra_modal_convs.0.convs.<cell___c_c___cell>.lin_query.bias f4 [64]
000000 d8 4b 92 3d ea 2b 4c bc b0 81 eb bc f6 b0 d3 3d
       0.07143372 -0.012461642 -0.028748363 0.10336487
000010 41 46 3a 3b 48 6f b9 3d a0 85 41 bd a5 29 90 bd
       0.0028423222 0.09054428 -0.047246575 -0.07039193
000020 a5 fd 16 bd f1 42 80 bd d2 35 b2 bd e3 ea 6a 3c
       -0.036862988 -0.06262768 -0.08701672 0.014338228
000030 be 54 5e bd 58 15 91 bd 05 cc c1 3d 49 da c3 bc
       -0.054280035 -0.07084149 0.09462742 -0.023907797
000040 9b 3e ee bc 45 18 52 bd 91 22 5b 3d 3c 3b 13 bd
       -0.029082587 -0.051292676 0.053499762 -0.035945162
000050 fa 71 3d 3b ad 14 37 bd c7 e0 c5 bd a7 9e 82 3d
       0.0028907047 -0.044697452 -0.096620135 0.06377917
000060 4e 11 ac 3d 43 25 93 bd a0 b0 ac bc 52 9d 8d 3b
       0.08401738 -0.071848415 -0.021080315 0.0043217326
000070 c0 37 c6 3d 8b 5a 15 bd aa 8e 0c 3d 5f 2f 96 3b
       0.09678602 -0.0364633 0.034315743 0.004583284
000080 6d 10 d6 3d ea fb 65 bd 3b 15 24 3d 32 6d 75 bd
       0.10452352 -0.056148447 0.04005931 -0.05991859
000090 a6 cf bf 3d 4e f3 2c bc c7 6d 93 bd f5 56 85 bd
       0.09365778 -0.010556055 -0.07198673 -0.06510726
0000a0 0a 01 0e 3d 53 bb 92 bd 0f b0 a6 3d 74 89 14 bd
       0.03466896 -0.071646355 0.08139049 -0.036263898
0000b0 f3 07 dc bd 84 4b 97 3c be c9 79 bd e5 a4 d2 bc
       -0.10743704 0.018468626 -0.060983412 -0.025713393
0000c0 03 dc a0 bd f8 c4 87 bd 83 1a fe 3d 4a 3b 8f bb
       -0.07854464 -0.06629366 0.124074005 -0.0043710815
0000d0 5f 46 8c 3d 64 2f 3a bc 0d 9a be bc 1e de c4 3d
       0.0684936 -0.011363838 -0.023266817 0.09612678
0000e0 8a 3f 5b bd 8e 58 86 3d 29 e3 12 bd 29 19 48 3b
       -0.053527392 0.06559859 -0.035861168 0.0030532575
0000f0 0d 27 bd 3c c9 13 88 bd cb 38 1a 3b a3 3d f9 3c
       0.02308991 -0.06644399 0.0023532386 0.030424898

intra_modal_convs.0.convs.<cell___c_c___cell>.lin_value.weight f4 [64, 74]
000000 7b d0 3c bd 2d b6 60 3d dd 24 c6 bc ed ed 07 3d
       -0.04609726 0.054861236 -0.0241875 0.033185888
000010 67 9d 90 3d fa 3d 78 3d 34 f3 e4 3d 55 89 91 3c
       0.07061272 0.06060598 0.111792 0.01776568
000020 1b 2f 5d 3d 0a 20 d4 3d 86 aa 64 3d 59 03 13 3d
       0.054 0.103576735 0.055826686 0.035891864
000030 c5 ab 9b bc a1 8f 80 3d 0a 18 a5 bd 0f cf fc b9
       -0.019002805 0.06277395 -0.08061226 -0.00048219456
000040 7e ce 02 b6 37 8b d1 bd 43 6b 4e bd 33 94 11 bd
       -1.9491704e-06 -0.10231631 -0.05039526 -0.035541724
000050 34 fc 0d 3d 4b 8a 0d bd 91 30 4f bd d9 2b 60 3d
       0.034664348 -0.034555715 -0.050583426 0.054729316
000060 44 59 77 bc 56 ba 04 3d 51 df 9c bc 01 35 a2 bd
       -0.015096966 0.032404266 -0.019149454 -0.07920266
000070 5f f0 7f 3d 52 db 4a bc 02 e2 d1 3d 58 a8 dc bd
       0.062485095 -0.012381392 0.10248186 -0.107742965
000080 35 55 6e 3d 5c 2f c6 3d 91 d9 c5 bd 68 65 4a 3b
       0.05818673 0.09677002 -0.09660638 0.0030883197
000090 bd a8 a9 bd bb 65 eb bc 0d 44 9f 3d 99 f9 90 3d
       -0.082841374 -0.028735032 0.077766515 0.07078857
0000a0 8d e8 cb bd 1b 8e 44 bd 06 fc eb bd ee 31 d8 bd
       -0.09956465 -0.047987085 -0.11522679 -0.10556398
0000b0 56 20 09 bc 0c 8c 3f bd 07 12 d7 3d e1 5e 89 3d
       -0.008369526 -0.04676442 0.10501485 0.0670755
0000c0 0c 81 64 bd 37 d5 de 3d 94 96 1c 3c 40 39 83 3b
       -0.05578713 0.10880511 0.009557385 0.0040046275
0000d0 5d b0 1c bd 69 0b 77 3c fe 27 66 bd 3e a4 ae bc
       -0.03825413 0.015078404 -0.056190483 -0.021318551
0000e0 1a ab aa bd 2b b6 08 bd d6 f3 a9 3d 89 61 79 bd
       -0.08333416 -0.033376854 0.08298461 -0.060884032
0000f0 0d 93 81 3d db 83 90 3c 03 af b9 3d 9c 35 89 bd
       0.06326876 0.017640999 0.09066584 -0.06699678
000100 52 2e 96 3d 85 92 ba bd 22 c7 02 3c 05 f2 65 bd
       0.07333054 -0.09109978 0.007982047 -0.05613901
000110 4f 1b a7 bc 6f 30 85 bc 57 e7 cf bd 0d ff e8 3c
       -0.020398764 -0.016258446 -0.101515464 0.02844193
000120 a9 01 8c bc c1 ba 2c bd 2d 85 56 3d 07 57 61 3d
       -0.017090635 -0.04217029 0.0523731 0.055014636
000130 6c 57 8c bb 54 a2 8e 3c 49 cb c5 3d 9f 3b 34 bd
       -0.0042828824 0.017411388 0.09657914 -0.04400217
000140 3f 8e bd bd 8f ff b3 3d e9 28 95 bd 08 fd e8 3d
       -0.09255647 0.08788978 -0.072831936 0.11376387
000150 df 3d c2 bd 54 2c 7c 3c ca e6 cb bc 76 be c0 3d
       -0.09484457 0.015391428 -0.024890322 0.094113275
000160 f1 04 04 bd 52 5b 7d 3a bf 64 bb 35 60 65 d0 bd
       -0.032231275 0.0009664792 1.3961907e-06 -0.10175586
000170 cf 08 af bd 69 4d 8f bd b9 1c d3 bd 1b ca 24 3d
       -0.08546602 -0.06997187 -0.10308213 0.040231805
000180 3d 01 0a bd 75 00 26 3c f8 7c 92 bd ea 7f 2a 3d
       -0.033692587 0.010131945 -0.07152742 0.041625895
000190 93 cd 6a 3d 80 69 be 3d ac 58 a8 3d fb b4 b2 3d
       0.057324957 0.09297466 0.08220038 0.087259255
0001a0 a3 ea ba bb 76 54 ab 3c 42 6e d4 3d b3 01 cf bc
       -0.0057042404 0.020914298 0.103725925 -0.025269365
0001b0 59 33 64 bd dc 59 3e bc 70 ef ee bc 49 9b d2 3d
       -0.05571303 -0.011618104 -0.029166907 0.102835245
0001c0 af 3a 9c 3d d4 c0 8a bc dd 26 6a bd 52 12 a6 bd
       0.076283805 -0.01693765 -0.05716597 -0.08108963
0001d0 fb c0 3d 3d 3f 52 e0 bd 59 e3 a0 3d 0b 89 cc 3d
       0.04632662 -0.10953187 0.07855863 0.09987076
0001e0 ca 6e 50 bd 6d 20 8c bc 76 80 2d 3c 3e 8f ad bd
       -0.050886907 -0.017105306 0.0105897095 -0.08474587
0001f0 3a 8a 3d 3b d4 5b bf bb 12 8a c6 3c 72 79 89 3d
       0.00289215 -0.005839804 0.024235759 0.06712617
000200 00 c0 06 3d b0 7a 72 3d 44 2e 1e 3d 5c 9b 40 bc
       0.03289795 0.059199035 0.03861834 -0.011755791
000210 34 e3 bd 3d 8a 62 58 3d 2b 55 fb bc 96 4c a1 bd
       0.09271851 0.05282835 -0.03068026 -0.07875936
000220 b8 9a 52 bd 91 fc 9e 3d 73 98 98 bd 32 29 db 3d
       -0.051417083 0.07763017 -0.074509524 0.10701217
000230 42 80 b1 3d 8e 08 d0 bd 57 af 88 bb 0e c5 8e bd
       0.08667041 -0.10157882 -0.0041712928 -0.06971179
000240 d2 c3 f1 bd 96 4c 2c 3d 05 3c 8e 3c d5 94 80 bd
       -0.11804928 0.042065226 0.017362604 -0.062783875
000250 14 4e df bd ac 52 36 bd ce 96 c7 bd aa cb 09 bc
       -0.10903564 -0.044512436 -0.097455606 -0.008410374
000260 82 18 e9 bd 2c 92 d3 bd 45 a0 ca 3d e6 8a 09 3e
       -0.113816276 -0.103306144 0.0989385 0.13431892
000270 a3 10 b5 3d fc 3b b4 bd 4a ed 68 bd ce f0 ab bb
       0.08841064 -0.088005036 -0.05686692 -0.005247212
000280 4a 4a 4b bd a0 fc 05 3d 08 d3 d3 3d e5 e6 35 3a
       -0.049631394 0.032711625 0.103429854 0.0006939008
000290 d6 be 9a 35 40 10 41 3d 57 4e 37 3d bf 75 c3 3c
       1.1529435e-06 0.047134638 0.044752445 0.023859857
0002a0 8f 45 d1 bd 21 c4 0f 3d 2c f3 d3 3d 8f f5 80 3d
       -0.102183454 0.035099152 0.10349116 0.062968366
0002b0 db 7e 96 bd 64 32 15 bd fb 67 23 bd de 4e 1c 3d
       -0.073484145 -0.03642501 -0.039894085 0.03816115
0002c0 49 02 ab 3d ba f4 a6 3c 57 96 d8 3c 66 59 0e bd
       0.08350045 0.020380367 0.026438875 -0.034753226
0002d0 bb 1d 1b bd 82 ed 0e 3d d7 45 d1 3d 70 86 8d 3d
       -0.03787015 0.034894474 0.10218399 0.069104075
0002e0 1b 38 6b 3d b0 36 a6 bd f8 af d3 3c 3f 87 9b bd
       0.057426553 -0.081158996 0.025840744 -0.075941555
0002f0 4e c4 08 bc fc bf 89 3d ec b0 ce bc f6 b0 34 bc
       -0.008347584 0.06726071 -0.025230847 -0.011028519
000300 78 94 be bd 60 48 ec bc be e3 27 3d 6c 43 e2 bc
       -0.09305662 -0.028843105 0.040988676 -0.02762004
000310 35 0d d4 3c 84 8f c3 3d 2a 52 dc bc fc a8 ae bd
       0.025885204 0.09548858 -0.026894648 -0.08528325
000320 16 f8 b7 bd a3 76 bd bd f8 c5 60 3d f6 49 1f bd
       -0.089828655 -0.09251144 0.054876298 -0.038888894
000330 0d 48 83 3c ec 31 cf bd 01 10 fc bc 05 3b e7 3c
       0.016025567 -0.10116944 -0.03076935 0.028226385
000340 c7 3b 7c 3d 87 52 9a bd 9c db 93 bd 2f 04 9e 3c
       0.061580446 -0.07535272 -0.072196215 0.019289104
000350 6c 76 a3 3d 88 7e 48 bd 8b 40 7a bd c0 30 ad 3d
       0.079815716 -0.048948795 -0.06109671 0.08456564
000360 3f 57 d5 bc a4 13 92 bd 2a 5d 9f 3d 1b 39 aa bc
       -0.026042579 -0.071326524 0.077814415 -0.020779183
000370 f8 6b fd b9 8a e1 5b 3d 11 96 a6 3d fe 45 52 bc
       -0.00048336363 0.053681888 0.08134092 -0.01283407
000380 e5 85 3d 3d d5 bc 94 3d 3a 9c 74 3d 54 f6 c9 bd
       0.04627027 0.07262579 0.0597193 -0.098614365
000390 b9 cd ce bd de f0 fd bc 1f 21 c4 3d 0b 4a 9f bd
       -0.10097832 -0.030998643 0.0957663 -0.077777945
0003a0 25 c3 ec 3d 40 16 1b 3e af 5f c5 3d 2a c0 74 3c
       0.11560658 0.15145206 0.09637391 0.014938394
0003b0 6b 0f d6 3d 28 02 80 39 c6 5d 75 36 be ca cb 3d
       0.104521595 0.0002441567 3.6562428e-06 0.099507794
0003c0 0c e4 17 bb e8 94 58 3d af 08 b8 3d d5 18 32 3d
       -0.0023176698 0.052876383 0.08986031 0.043480713
0003d0 b4 56 ce 3c 87 f3 28 3e 5a 3d 7c 3d ae 76 b7 bc
       0.025187828 0.16499148 0.061581947 -0.022395458
0003e0 cf 89 a0 3d 9a d1 f4 3d a8 5f 08 3d 85 12 05 ba
       0.07838785 0.11954041 0.03329435 -0.0005076307
0003f0 4b 03 58 3c 2f 37 99 bd 90 10 f0 3c 0b 09 24 bd
       0.013184379 -0.074812286 0.029304773 -0.040047687

intra_modal_convs.0.convs.<cell___c_c___cell>.lin_value.bias f4 [64]
000000 1d cd c1 3c ca cc ba bd 86 7c 9d 3d 81 6f 27 3c
       0.023657376 -0.09121092 0.076897666 0.010219456
000010 6d 81 c6 3d a3 62 2d 3d cd 2b 79 3d 3b 49 c6 3d
       0.09692655 0.042330395 0.060832787 0.09681936
000020 92 3d 91 bd 85 51 7e 3d 07 60 b4 bd 64 9b 0b 3d
       -0.07091822 0.06208946 -0.08807378 0.03408374
000030 0a 54 62 bd 32 d1 5a 3d 2b 1e 8b bd 5e 57 9a bc
       -0.055255927 0.05342216 -0.067928635 -0.018840488
000040 87 5f e3 bd fe 9a a6 bd 21 76 a6 3d cf 2a 15 3d
       -0.11102205 -0.08135031 0.08128 0.03641778
000050 bc 18 b7 3d ca 41 10 3b 8b cd 79 bd 83 c1 63 3d
       0.089402646 0.002201187 -0.060987037 0.05560447
000060 48 7b aa 3d 86 f1 ca bc ec 24 2e 3c b7 2a 33 3d
       0.08324295 -0.02477337 0.01062892 0.043741908
000070 7e ba 2f bc 49 90 96 3d ed e7 be bd 02 81 9f bd
       -0.010725616 0.07351739 -0.0932158 -0.07788278
000080 d7 ab cc 3d 2c 94 9b bc 87 96 a4 3d 85 8d b3 bd
       0.09993713 -0.018991552 0.08036523 -0.08767227
000090 fa 1c cc 3d 4b 07 4c bd 3c 8f da bd 6c 1e 57 bd
       0.09966464 -0.049811643 -0.10671851 -0.052519247
0000a0 e2 6a b0 bd 77 d4 b9 3d 40 4c b2 3d 25 74 ea 3d
       -0.08614136 0.090737276 0.0870595 0.11447934
0000b0 62 4e a2 3d d7 2f d3 bb e1 66 b4 3d 10 94 a6 3d
       0.079251066 -0.006444912 0.08808685 0.081337094
0000c0 82 2e ba bc 00 82 42 bd e6 2d 9d 3d 96 e5 d3 bc
       -0.022727255 -0.04748726 0.0767477 -0.025866311
0000d0 39 ea 84 3d f8 3f 7f 3d f9 fd d2 bc a7 a2 d7 bd
       0.06489987 0.062316865 -0.02575587 -0.1052907
0000e0 ac 2c e1 3c 61 77 1a bd 34 d8 8b 3d f2 22 7f 3d
       0.027487122 -0.037711505 0.06828347 0.062289186
0000f0 e9 70 04 3d 57 2a 9b bd 0a 1c a8 bd e5 15 26 bd
       0.032334242 -0.07576435 -0.08208473 -0.040548224

intra_modal_convs.0.convs.<cell___c_c___cell>.lin_edge.weight f4 [64, 1]
000000 78 ac 73 3e c4 1c 40 3f 2c 9b 60 3f b1 30 5e 3e
       0.2379626 0.7504389 0.87736773 0.21698262
000010 47 98 bd be 27 fc 68 3d 1c 4c 88 3e c4 7c 0c bf
       -0.3703024 0.056881096 0.26620567 -0.5487788
000020 9b ee 3c bf cf 7b 72 be 93 29 22 bf a7 5b b8 3e
       -0.73801583 -0.23680042 -0.6334469 0.36007425
000030 58 90 5e be 27 91 56 be 46 d8 f9 3e fc 89 22 bf
       -0.2173475 -0.20953809 0.48797816 -0.634918
000040 f2 3f 4d 3f d8 8d 2e bf a4 fb 2a bf eb e6 72 3e
       0.801757 -0.68185186 -0.66790223 0.237209
000050 2a 6e 27 be 55 f3 32 3e 2a 9a 2b bd 05 1f 3f bf
       -0.16350618 0.17475636 -0.04189507 -0.7465671
000060 34 3a e4 be 37 b1 b8 3e 39 72 bc be cb 1f 63 3f
       -0.44575655 0.36072704 -0.36805895 0.8872039
000070 31 bd ee be 99 2b a5 3d 45 1f 6d bf 53 f5 96 be
       -0.46628717 0.08064956 -0.9262584 -0.29484043
000080 f1 9e 5e bf 32 05 6c 3e d4 34 e8 3e 5b 52 3b be
       -0.86961275 0.23048857 0.45352805 -0.18293135
000090 ec a7 01 3e f0 1f 3e bf f1 42 48 3f 1a 6d f7 3e
       0.12661713 -0.7426748 0.78227144 0.48325425
0000a0 4c 50 12 3e 9b 18 3c bf 1d 4b 0a 3f c9 b2 e9 3e
       0.14288443 -0.73475045 0.54020864 0.45644215
0000b0 dd 4b 4f 3f ef e2 70 3f 87 0c de 3e bc 6a 84 be
       0.80975133 0.94096273 0.43368933 -0.25862682
0000c0 cc d6 0b bf d4 fe e1 bd f5 d9 c1 3e 0a 8a 5f 3e
       -0.5462463 -0.11034933 0.378616 0.21830001
0000d0 0d e7 ba bd ae 11 3c bf 59 6e f3 be 45 84 60 3f
       -0.09126101 -0.7346448 -0.47545126 0.8770183
0000e0 9d 91 46 3c 6a cd 50 3e 6e f9 43 bf db 5d 2a bf
       0.012119678 0.20390859 -0.76552474 -0.6654946
0000f0 ba 3b 11 3f bc 04 73 bc 15 06 05 3f e2 de 1a bf
       0.5673176 -0.014832672 0.51962405 -0.6049634

intra_modal_convs.0.convs.<cell___c_c___cell>.lin_skip.weight f4 [64, 74]
000000 c1 00 67 bd 11 95 02 3d bf 88 83 bc 3d 4f de 3d
       -0.056397203 0.031880442 -0.016056417 0.10854957
000010 71 2c 6b bd a0 30 fb 3c f4 d8 b4 3d 8d 03 d9 bd
       -0.05741543 0.030662835 0.08830443 -0.105963804
000020 e9 eb 31 bc 78 4d 48 bc a3 05 2b bd 06 40 9b 3d
       -0.010859468 -0.012225501 -0.041753422 0.07580571
000030 6b ee 9f bd 84 e6 57 bd 80 62 4c 3d 37 34 3c 34
       -0.078091465 -0.05271007 0.049898624 1.752786e-07
000040 86 a8 d1 33 d3 77 36 bc 4a 61 b5 3d 59 7c c3 3d
       9.762975e-08 -0.011136967 0.08856447 0.09545202
000050 5b 3c c2 3d e2 af 53 3d 92 38 82 3d 6c 7b 96 3c
       0.09484168 0.051681407 0.06358446 0.018369399
000060 d0 2b cb 3d a4 0e 1e 3d a3 6d 2c 3d c4 b6 d0 3c
       0.09920466 0.03858818 0.042096745 0.025477774
000070 4e 19 e6 bc c2 19 c1 3d 30 77 91 3d dd 65 43 bd
       -0.028088238 0.09428741 0.07102811 -0.047704566
000080 f0 a1 4d 3d 7e 45 bb bd e4 c0 76 3b 9a 40 af bc
       0.050203264 -0.09144114 0.0037651593 -0.02139311
000090 33 ad d9 ba 97 1d a5 bd a4 95 24 3d 0e a4 ba bd
       -0.0016607404 -0.080622844 0.04018177 -0.09113322
0000a0 60 76 c5 bd 83 e0 9f bd f8 b9 8b bc 1d 1f ce 3d
       -0.09641719 -0.07806494 -0.01705645 0.10064528
0000b0 25 94 1a bd 10 f1 65 bd 83 b9 9d 3d 9d 07 ae bd
       -0.037738938 -0.0561381 0.07701399 -0.08497546
0000c0 88 2f 68 bc e7 d7 9c 3d e6 7a db 3d e2 b7 65 3c
       -0.014171489 0.076583676 0.107168004 0.014020892
0000d0 5b a5 50 3d df 96 e8 3c 33 64 3d 3d 07 b8 7f bd
       0.050938945 0.028392253 0.046238136 -0.06243136
0000e0 44 93 2a bc b6 74 78 bd cb a5 ce 3c b3 ad 9c bd
       -0.010411087 -0.06065818 0.02522554 -0.07650318
0000f0 2a a8 66 bc 44 f4 62 3d 3e 73 0c 3a e4 11 c4 bc
       -0.014078179 0.05540873 0.00053577486 -0.023934312
000100 98 a6 a3 3d d7 6c 04 3d fd 95 db bd 6d 1c b6 3c
       0.079907596 0.03233036 -0.10721967 0.022230351
000110 0b b0 71 3d d1 2d 89 3d c4 e1 63 3d a1 21 25 3b
       0.05900578 0.06698192 0.05563523 0.0025197046
000120 42 1a 1e 3d 81 c0 81 bc 32 3f 4c 3d 28 e8 a1 bd
       0.03859926 -0.015838863 0.049864955 -0.079056084
000130 13 7b fa 35 2f a8 c9 3c 68 6e b2 bd 49 bc 9f bd
       1.8662271e-06 0.024616329 -0.087124646 -0.077995844
000140 3d 63 88 bd e3 7e 2d 3d a7 ae 62 bd 1b 51 1c 3c
       -0.06659553 0.042357337 -0.055342343 0.009540821
000150 7e 28 c9 3c d5 f2 ed 3d 71 c7 b0 3d c5 05 99 3d
       0.024555441 0.11618582 0.086317904 0.074718036
000160 eb 7f 58 3d fc d7 69 39 62 b4 39 34 18 a6 46 3d
       0.052856367 0.00022301072 1.729509e-07 0.048498243
000170 b5 68 f8 bc 8a 0a 2d 3c 82 bd 7a bd 4b d0 02 bd
       -0.030323366 0.010561595 -0.061215885 -0.031936925
000180 62 e0 b9 bd 42 74 b5 bd e1 eb 2d 3d 80 77 73 3d
       -0.09076001 -0.08860065 0.04246128 0.059440136
000190 0a 45 6f 3d d2 21 14 bd 66 74 c6 3d 7f df b8 bd
       0.05841545 -0.036165066 0.0969017 -0.090270035
0001a0 87 95 b1 3c 00 3f 45 3d 90 a7 c4 3d 4e 48 1d bd
       0.021677746 0.048155785 0.096022725 -0.038399033
0001b0 05 b8 21 bc 93 ab b9 3c 6c 91 d7 bc fc c2 13 bc
       -0.009870534 0.02266482 -0.02631446 -0.009018656
0001c0 f9 34 02 3d ad 0c 41 3d 96 1a 81 3c 09 33 da bd
       0.0317888 0.04713123 0.015759747 -0.106542654
0001d0 98 57 2f 3d 35 f2 c3 3d 95 4b d6 bd 72 54 d6 bd
       0.042808145 0.09567682 -0.10463635 -0.104653254
0001e0 19 30 c2 bc dd 73 ab 3d 75 d2 d2 3d 02 d5 22 3d
       -0.023704575 0.083717085 0.10294048 0.03975392
0001f0 ae 3d 5a 3d 38 95 df b9 c8 55 9d bd fe 8d cd bc
       0.05328148 -0.0004264505 -0.07682377 -0.025092121
000200 9e f4 aa bd 05 85 03 bd e5 aa ab 3d b2 f8 09 3d
       -0.08347438 -0.03210928 0.08382205 0.03368444
000210 8c 5b 9e 3d a7 3e e2 bd 5e 50 f3 bc 70 dc 4a 3d
       0.07732305 -0.11047106 -0.029701408 0.04952663
000220 46 e6 b4 3d 9f 96 37 bd 4a ee 22 3d cd 1a 09 3d
       0.08832984 -0.044821378 0.03977803 0.033472825
000230 a7 02 50 bd be 89 87 3d d5 81 04 bd 40 a8 cc 3d
       -0.05078378 0.06618069 -0.03235038 0.09993029
000240 f6 3a bb bd 79 9f 21 3d 58 1a 35 3c e1 0a cf bd
       -0.09142105 0.039458726 0.011053644 -0.10109497
000250 c5 4f 84 bc 24 b7 64 ba e7 f2 5a bd 75 dd 17 bd
       -0.016151318 -0.00087248 -0.053454306 -0.037076432
000260 87 64 42 3d 07 73 b6 3d 01 ef 90 3c 89 dc 6a 3d
       0.04745915 0.089086585 0.017692091 0.057339225
000270 c0 27 60 3c 0f d0 25 bc cb 46 d5 3b 13 f9 06 be
       0.013681352 -0.010120406 0.0065086833 -0.13180952
000280 2f d9 bf 3d 39 93 d1 bd 9b a7 b1 bd 01 c6 87 2a
       0.09367596 -0.102331586 -0.08674546 2.411821e-13
000290 8f 3f 02 2a 68 da 29 bd 06 22 8a 3d d9 be 2a bd
       1.1568371e-13 -0.041468054 0.06744771 -0.041685913
0002a0 99 2e 78 bc 1b 70 a9 3d 72 4e d0 3d be 73 82 bd
       -0.0151478285 0.082733355 0.10171212 -0.06369732
0002b0 bd 16 36 3d 0f a7 7e bc 76 bd 2c 3d bf c1 38 bd
       0.04445528 -0.01554276 0.04217287 -0.045106646
0002c0 96 86 84 3d eb a4 52 bd ff 03 01 3d a5 bc d4 3d
       0.06470983 -0.05142681 0.03149795 0.103875436
0002d0 ba 21 d6 bd 18 f5 c5 3d 92 13 2d 3d 69 ad 91 3d
       -0.104556516 0.096658885 0.04225499 0.071131535
0002e0 01 56 c6 3d 9c b2 72 3d 75 63 91 bd 80 18 fe bb
       0.09684373 0.059252366 -0.07099048 -0.0077543855
0002f0 d6 ef a5 3c f6 7f 35 bc 31 c0 8e bd 33 4c 6b 3d
       0.020255964 -0.011077872 -0.06970251 0.057445716
000300 d7 fe a6 bc 7d cd b1 3d 91 dc 85 bd 8c aa 0b 3d
       -0.020385189 0.08681772 -0.0653621 0.034098193
000310 14 bb 0c 3d 12 4a 05 be d8 e4 2e 3c 79 5c 96 bd
       0.0343581 -0.13016537 0.010674678 -0.073418565
000320 b1 19 32 bd aa 99 ce 3d fa b2 09 bb 60 2c af 3d
       -0.043481532 0.10087903 -0.002101122 0.08553386
000330 10 34 90 3d 78 92 d5 bd f2 6f 6f 3c f7 ef f9 bd
       0.0704118 -0.10428327 0.014614092 -0.12203973
000340 6d 83 7c bd c7 10 b8 bd 7d ae bd 3d f4 b3 8d bd
       -0.061648775 -0.08987575 0.092617966 -0.06919089
000350 78 22 44 bd 0d 26 99 3d a1 ba 9e 3c 14 fc 3d bd
       -0.047884434 0.07477961 0.019376101 -0.04638298
000360 60 6a 9b bd 98 43 a4 3d 8d d9 a8 3c 96 2d cb bc
       -0.07588649 0.08020705 0.020611549 -0.02480201
000370 18 fa 6f bd 97 a9 d2 bd a6 ef 9b 3d 1c 36 a2 bd
       -0.058588117 -0.10286253 0.07614069 -0.07920477
000380 98 8e cf bd 5a e7 44 3d 29 62 f8 3c 71 2d 1a 3d
       -0.101346195 0.048072197 0.030320244 0.037640993
000390 a1 fa 1c bd 4f 68 e4 3b a0 b0 33 3c 95 af da 3d
       -0.038324956 0.0069704424 0.010967404 0.10678021
0003a0 ea c1 2a 3a 52 4b 32 3e df 5c 32 bd 9c 76 de 3d
       0.0006513881 0.17411545 -0.0435456 0.10862467
0003b0 f0 10 d3 3d 30 6f eb 39 03 c5 a0 35 ef a4 8f bd
       0.10305965 0.00044905534 1.1978267e-06 -0.070138805
0003c0 98 8e ce bc f2 0a 92 bd 27 f4 41 bc 51 c8 28 3d
       -0.025214478 -0.07130994 -0.011837996 0.04120666
0003d0 af 8b 28 bc f7 d3 84 3d 43 89 a1 bd 5c 3f 1f 3e
       -0.010287209 0.064857416 -0.07887509 0.15551513
0003e0 d9 94 bb 3d c9 73 84 3d e5 7e 0d bb 49 1e 7c 3c
       0.0915925 0.06467397 -0.0021590528 0.01538808
0003f0 06 c8 07 3e 53 6b e5 3c 31 0c e9 3d 8a 2b a3 3c
       0.13259897 0.028005278 0.113792785 0.019918222

intra_modal_convs.0.convs.<cell___c_c___cell>.lin_skip.bias f4 [64]
000000 44 35 a0 bd ed 4e ce 3d 7f ca b8 3d ee 4f 18 bc
       -0.078226596 0.10073648 0.09022998 -0.0092964005
000010 13 ba 85 3c 1c a0 a2 3d 51 45 89 39 12 80 81 3d
       0.016324079 0.07940695 0.0002618232 0.063232556
000020 d8 7e d6 bd 1e 7d e3 bd eb 58 82 3d a8 7c 01 3c
       -0.10473412 -0.111078486 0.06364616 0.0079032555
000030 45 8e bd 3d c3 ae 20 3d eb 73 9c 3d 96 c8 c0 3d
       0.092556514 0.039229166 0.07639297 0.09413259
000040 fa f3 d8 3d 07 0c 41 3d c1 8d cc 3b 23 10 fb ba
       0.1059341 0.04713061 0.0062424843 -0.0019154589
000050 d6 29 52 bd d4 61 11 3d ee 6e 37 3c b8 51 8b bd
       -0.05130943 0.035493687 0.011195881 -0.06802696
000060 08 62 8b bd 8c 45 c8 bc 1e 67 83 bd 7c b1 8b bd
       -0.06805807 -0.024447225 -0.064161524 -0.06820962
000070 e8 2f ae bd c7 cb 3c bc 97 6f f1 3d 84 1b 7d bd
       -0.08505231 -0.011523194 0.11788862 -0.06179382
000080 55 a3 8d 3d 65 ee c6 3c 0a 64 de bd 59 b4 ab 3d
       0.06915919 0.024283597 -0.10858925 0.08384008
000090 c7 6d d5 3d 17 5b c5 bc 60 65 e2 3d 05 68 eb bc
       0.10421329 -0.024091287 0.11054492 -0.028736124
0000a0 1e 20 05 bd a5 5b ac bd 79 26 96 bd 5d 92 9d 3c
       -0.032501332 -0.08415917 -0.07331557 0.01923483
0000b0 c9 fa b2 bc 97 ca 6b bd 80 3b 1c bd bb da 94 bd
       -0.0218481 -0.05756625 -0.03814268 -0.07268282
0000c0 ee af ad bd e1 fe 0d 3c b2 e6 9b 3c 2e e1 f5 bc
       -0.084808215 0.008666725 0.019030903 -0.0300146
0000d0 ea 4a 3d 3d 9a c9 66 3d 14 92 92 3d 5f 8c 84 bc
       0.04621402 0.056344606 0.071567684 -0.016180215
0000e0 33 4a d7 bd 7d 0a a4 bc 23 6b d0 3d 5f 57 cb 3b
       -0.10512199 -0.020024532 0.10176685 0.006205484
0000f0 ca f2 a1 bc 3a ff 79 ba 39 1a b0 bd ec a9 d6 3d
       -0.019769091 -0.0009536628 -0.085987516 0.10481629

intra_modal_convs.0.convs.<gene___g_g___gene>.lin_key.weight f4 [64, 215]
000000 b8 bd 86 bd 75 16 fe b6 cf 49 1d 3c 43 06 5d bd
       -0.06579155 -7.5724042e-06 0.009600117 -0.05396105
000010 c2 c7 6c 3d 0a a7 21 3c 09 b8 34 bd b9 15 d2 3c
       0.05780769 0.009866485 -0.044120822 0.025645124
000020 40 7e 90 bc a5 eb 38 bc 6a 40 53 bd e5 d1 ac bc
       -0.017638326 -0.011286651 -0.051575102 -0.02109618
000030 c3 f4 1c bd 63 4a 4d 3d 53 b8 39 bc d0 69 53 3c
       -0.03831936 0.05011977 -0.01133545 0.012903646
000040 68 30 61 b9 a8 1f 75 bd 7c b1 2d bd c7 9f 3a bd
       -0.00021475705 -0.059844643 -0.04240559 -0.04556253
000050 11 0e cb 3c 84 f2 ab 3c 80 7b a5 bc 48 0e 87 3c
       0.02478698 0.020989664 -0.020200491 0.016486302
000060 6c 11 74 bd 91 e5 a3 3c 65 72 98 3a c9 40 a5 3c
       -0.059586927 0.020006927 0.0011630772 0.020172494
000070 2f 6c 24 bc 41 6c 7a 3c ee e0 33 bd a7 a2 fd 3c
       -0.010035559 0.015284599 -0.04391568 0.030961348
000080 77 46 3d 3d 42 e3 07 bc e2 5f 12 3d e9 36 07 3d
       0.04620978 -0.008293929 0.035735972 0.03301135
000090 4e fc 2d bd f4 4d 12 3d 3e af 71 bc 8e d6 42 ba
       -0.042476945 0.035718873 -0.014751254 -0.0007432484
0000a0 19 18 7e 3d bd 71 86 3c 51 0d 97 3b 9d f1 81 bc
       0.0620347 0.016411657 0.0046097417 -0.01586228
0000b0 62 8c 39 3c d3 19 37 3d 56 00 9a 3b 68 92 ad 3b
       0.011324974 0.044702362 0.004699747 0.005296994
0000c0 ed 88 4d 3d 0e b3 81 bb 4d cc 30 3d 65 34 5a bc
       0.05017941 -0.0039581126 0.043163586 -0.013318156
0000d0 2f 0a 0c bd 4c cd 88 3c 11 61 20 bd ce 75 81 3d
       -0.0341894 0.016699456 -0.03915507 0.063212976
0000e0 dd 9b 42 3d 89 92 09 bd ed 5e 20 bd 69 5d 5b bd
       0.047511924 -0.033587012 -0.03915303 -0.05355588
0000f0 ea 63 03 3d 52 10 a2 bc bd 98 64 ba ed a1 2f bd
       0.032077707 -0.019783173 -0.00087202695 -0.042879034
000100 9e 41 13 3c 0f 08 27 bd 45 e5 61 bd bf fe c8 bc
       0.008987812 -0.04077917 -0.05515029 -0.024535535
000110 e5 33 ec bc 21 80 df b9 4f 5c a5 3c e8 29 75 bd
       -0.028833339 -0.00042629338 0.020185618 -0.059854418
000120 a4 b1 01 3d 8f a7 1a bd ad de 22 bd e3 66 18 bd
       0.031663552 -0.037757453 -0.03976314 -0.037207495
000130 36 83 08 3c 13 f5 6c bd ad 96 3f bd 8c 5f 0a 3d
       0.008332064 -0.05785091 -0.046774555 0.033782527
000140 a1 f3 3f 3b e9 42 01 bd 87 6e 06 3d 31 cc 15 3d
       0.0029289501 -0.03155795 0.03282025 0.036571685
000150 d0 08 6e bd e7 a4 1e bc 6c d2 f5 3c 63 d5 6a 3c
       -0.058113873 -0.0096828705 0.030007564 0.014333102
000160 67 ab 24 bd be 11 88 3c 66 7c ad 3c ec cd 82 bd
       -0.040202525 0.016610023 0.021177482 -0.06386933
000170 03 f4 bb bc 22 f0 00 3d 31 d0 83 bc 1f 16 2b bc
       -0.022943502 0.03147901 -0.016090484 -0.010442286
000180 56 31 19 bd c0 21 a9 bc c6 c2 c0 bc dd 09 3a 3d
       -0.037400566 -0.020645976 -0.023530375 0.045419563
000190 ed 92 48 bd 8a 59 44 3d 32 70 09 3d fe af 8a bc
       -0.048968244 0.047936954 0.033554263 -0.016929623
0001a0 c0 2b ab 3b 40 30 62 bb de 8f 1f b8 61 14 fe bc
       0.0052237213 -0.0034513623 -3.804254e-05 -0.031015577
0001b0 31 0f cc 3c 13 ae 41 3d 99 76 81 bd 60 e4 16 3d
       0.024909588 0.04728515 -0.06321449 0.03683889
0001c0 64 5e 0f ba 0c ba 4d 3b 32 4e f8 bb 1c 81 e5 bb
       -0.00054690824 0.003139141 -0.007577681 -0.0070039164
0001d0 a1 ae 03 3d 1b 5c 01 3d a2 8d c4 3c 0d 65 82 bd
       0.03214896 0.03158198 0.023993317 -0.0636693
0001e0 3e 3c 39 bd 00 e3 4f 3c e4 a9 4a 3c d1 48 18 3c
       -0.045223467 0.012688398 0.012369607 0.0092947045
0001f0 ae a6 8a 3c 4c 39 c6 3b eb 0a 2e bd 9b 93 14 ba
       0.016925182 0.006049311 -0.04249088 -0.0005667747
000200 e8 fb a1 3c 29 eb 0e bc bd 38 73 bd 34 7a 83 bd
       0.019773439 -0.008723059 -0.05938028 -0.06419793
000210 f4 27 3d 3d 28 0e 3e 3d 56 31 6d bd 25 4b 1e 3c
       0.04618068 0.04640022 -0.05790838 0.009661471
000220 c6 62 9b bb 5b 59 56 3d 1e b6 ff 3c 4f c7 9c bc
       -0.0047419993 0.05233131 0.03121477 -0.019138006
000230 66 03 b4 3c 28 47 d8 bc ec c4 4d 3d 22 66 a8 3c
       0.021974277 -0.026401117 0.050236627 0.020556513
000240 f5 41 8a bd 6a 15 36 bd 4a 79 c0 3c f2 78 6b bd
       -0.067508616 -0.044454016 0.023495335 -0.05748839
000250 08 fc f5 3b e7 a8 65 3d 7d 00 50 bc 91 0c 88 bc
       0.007506851 0.05606928 -0.012695429 -0.016607555
000260 7f 40 6e bc d0 e4 11 bb 60 7f 87 3c 8a 83 48 bd
       -0.014541744 -0.0022261627 0.01654023 -0.04895357
000270 b7 5e 2c bc 28 bf 4e 3c 82 58 79 bd 77 91 f8 38
       -0.010520629 0.012618817 -0.060875423 0.000118526565
000280 96 fb 2b 3d de 7e 6d 3d 37 43 0a bb 60 8c 79 bd
       0.041987978 0.057982318 -0.0021097192 -0.060924888
000290 56 55 5b 3c fc 8a a5 3a 1d c9 2c 3d 0f 9f 3d bd
       0.013387045 0.0012629922 0.042183984 -0.04629427
0002a0 c7 1b 56 bd 55 60 eb 3b 6e 43 d2 bb e1 61 f6 3c
       -0.052272584 0.0071831145 -0.0064167297 0.03007597
0002b0 6d 9e 0e bb 9f b4 76 bc fa 31 93 39 fa 41 1e 3d
       -0.002176191 -0.015057712 0.0002807526 0.03863714
0002c0 36 fc fb 3c 26 98 78 bd bf 4c b5 bc 02 d6 70 bd
       0.030759912 -0.060691975 -0.022131322 -0.058797844
0002d0 01 64 1d 3b a8 4d d7 3c 77 d7 4c 3c b5 50 d9 3b
       0.0024015906 0.026282147 0.012502543 0.0066319355
0002e0 29 88 52 3d b1 44 2b 3d 61 84 35 bd 30 fa 0d bc
       0.051399384 0.041813556 -0.0443157 -0.008665606
0002f0 2e b5 4d 3b be bd 06 3d a0 31 6d 3c 20 5f f2 bc
       0.003138851 0.032895796 0.014477164 -0.029586375
000300 0b 73 2c 3d f1 64 34 b8 61 88 4f 3d f3 6e 07 bd
       0.0421019 -4.3009353e-05 0.05066717 -0.033064794
000310 74 25 0b bc da cf 7d bc d1 8c 66 bd 35 63 c7 bb
       -0.008492816 -0.01549145 -0.056286637 -0.0060848244
000320 bf 76 fc 3c 41 0f a6 bd ea f1 b5 3c 69 67 3e 3d
       0.030818341 -0.08108378 0.02221008 0.04648534
000330 d8 bd 45 bd 7a 95 64 bc a9 02 17 bc 13 21 2c 3c
       -0.048276752 -0.013951654 -0.009216943 0.010505932
000340 1d 30 45 3d 38 57 4c bc 5d 01 81 3c d0 94 af bc
       0.048141588 -0.012471966 0.01574772 -0.021433264
000350 cc 13 00 3d 8a 11 da 3c da 9b 10 3b 21 1d 40 3d
       0.03126888 0.026619691 0.002206555 0.04690278
000360 f2 e9 f0 3b f7 df 34 3d ce 3d df 3c 11 7a c0 3c
       0.007352107 0.044158902 0.02725115 0.023495706
000370 8c 11 86 bc 56 9c 78 3c 3e 49 6a bd 79 b2 8a bd
       -0.016365789 0.015173992 -0.057198755 -0.06772322
000380 a6 3f e7 bc 74 9c b1 bb ec ed 54 3d 18 be 39 bd
       -0.028228592 -0.005420262 0.051984712 -0.045347303
000390 50 2f f5 bc e7 39 0a 3d 88 a7 39 3d c6 ec 80 bd
       -0.029929787 0.033746626 0.045325786 -0.06295161
0003a0 de 8a 9c 3c 0b f4 02 3d 35 9b f6 ba 9c 92 4d bc
       0.019109186 0.03197102 -0.0018814566 -0.012547161
0003b0 0c a4 08 3d ef 29 12 bb 0a 03 05 bd 09 90 95 3b
       0.033359572 -0.0022302826 -0.0324736 0.0045642895
0003c0 31 06 e8 3c 6a f5 4a 3d 6a 39 6a 3c 80 6f eb bc
       0.028323265 0.04955045 0.014295915 -0.02873969
0003d0 0e 5f 2b 3c fe 5e 71 bd 43 2d f3 bc 3c 8d eb 3c
       0.0104596745 -0.058928482 -0.029684668 0.02875387
0003e0 0e 6d cb bb 9d 2b 70 bc 96 91 a1 bc 24 29 2b bd
       -0.0062080687 -0.014658836 -0.019722741 -0.04178728
0003f0 f9 ec 81 bc 39 30 2d 3d cd 47 6d bc 66 70 b1 bc
       -0.015860068 0.042282317 -0.014482451 -0.021660041
