checkpoints/stage2_os_predict.pth (torch, 798765 bytes, 99 tensors)

shared_cluster_centers f4 [5, 64]
-0.01845955 -0.28160673 -0.0028667215 0.02727856 -0.10923185 0.12785208 0.0024799902 0.033907067
-0.011920915 -0.070186265 0.01167655 -0.2011834 0.094840676 -0.0345962 -0.07359689 0.11092075
0.09694653 -0.06258751 0.06712923 0.0036425863 -0.13029818 -0.0012145353 0.25973698 0.14313847
0.090872936 -0.011197041 0.024592662 0.1313717 0.08135905 -0.1021412 -0.052966446 -0.17347167
0.050394148 -0.16413316 0.0069599785 -0.055563685 -0.10324511 0.25435975 0.090945795 0.0580263
0.043945238 -0.050431162 0.114925765 -0.1453255 -0.1255817 -0.23382126 -0.2266146 -0.22765763
-0.23518506 0.2545438 0.16587132 0.118797824 -0.11213833 0.03266512 -0.073591 -0.044141475
-0.10327279 0.11455395 0.20029573 -0.09181243 0.07445989 0.049194537 0.06385377 -0.1355426
-0.017923538 -0.27940086 0.021268176 0.023642149 -0.10902068 0.10636372 0.03502003 0.03384887
-0.014168353 -0.07688343 -0.0025748163 -0.1895443 0.099455774 -0.028658444 -0.073893145 0.09052136
0.074696936 -0.05364589 0.05676887 -0.0019968934 -0.13852867 0.015801162 0.2799319 0.15729986
0.052793242 -0.0020192284 0.008366476 0.16238075 0.07436756 -0.10191094 -0.0509097 -0.1706705
0.050315082 -0.16522413 0.011204565 -0.04257743 -0.09040165 0.24024774 0.09857554 0.049466867
0.04553709 -0.056598075 0.027981032 -0.15471034 -0.10734664 -0.23374094 -0.22617882 -0.2248926
-0.23091587 0.2755342 0.16163853 0.19662377 -0.111283295 0.017143877 -0.06508867 -0.035776608
-0.11611248 0.11451858 0.2071337 -0.08613443 0.052890003 0.07449368 0.01320589 -0.10967907
-0.010593698 -0.29180846 0.033620946 0.092911184 -0.09921415 0.11607542 0.08804231 0.023133239
0.044484876 -0.05124554 0.048751768 -0.19499302 0.11473504 -0.014823815 -0.08514155 0.07235177
0.082475215 -0.06067433 0.06807762 0.0074333204 -0.15324406 0.0058274204 0.21457165 0.1948991
0.09547443 -0.016071469 0.019327037 0.17143118 0.06922278 -0.112172335 -0.023111703 -0.18059905
0.011283968 -0.15953751 -0.0027452055 -0.061303478 -0.087435864 0.24669403 0.1045146 0.015800856
0.015936002 -0.06810779 0.026262267 -0.15835269 -0.067975126 -0.23872642 -0.23389225 -0.23897703
-0.23826905 0.22743148 0.14045873 0.0879079 -0.118816145 0.020486081 -0.09082868 -0.040560484
-0.12343365 0.11908304 0.213188 -0.08579264 0.13466896 0.039772213 0.0070196716 -0.12064845
-0.009950555 -0.27176303 -0.02554652 0.012235664 -0.1110887 0.13645482 0.0032858844 0.04225479
0.003605878 -0.012068943 0.022350052 -0.20074283 0.094848655 -0.04764714 -0.071288146 0.13977522
0.12151809 -0.06413608 0.05190869 0.008213948 -0.13542981 0.027247181 0.22206011 0.13458644
0.07026401 -0.0036405667 0.011668969 0.11350812 0.08689525 -0.0960855 -0.059387542 -0.16130708
0.11717673 -0.17557108 0.067213096 -0.050504774 -0.1323 0.28779262 0.09619217 0.085874945
0.034281798 -0.039860085 0.070667155 -0.1327353 -0.13085242 -0.22722256 -0.21839409 -0.22135197
-0.22344843 0.27948284 0.13329193 0.11567153 -0.11071815 0.02286148 -0.069400564 -0.06509553
-0.16027021 0.08724636 0.18761703 -0.0773483 0.0739366 0.047179546 0.014382521 -0.14217734
00000000: 7b38 97bc c22e 90be 9bdf 3bbb 4977 df3c
00000010: f3b4 dfbd a8eb 023e 5587 223b 23e2 0a3d
00000020: f14f 43bc d1bd 8fbd 004f 3f3c 0503 4ebe
00000030: d43b c23d bfb4 0dbd f7b9 96bd 6b2a e33d
00000040: e78b c63d e12d 80bd 0d7b 893d 75b8 6e3b
00000050: e36c 05be 0b31 9fba 3ffc 843e e492 123e
00000060: 971b ba3d cb73 37bc 8d76 c93c 4e86 063e
00000070: 939f a63d 682f d1bd 58f3 58bd 8fa2 31be
00000080: 186a 4e3d 8612 28be 8810 e43b bf96 63bd
00000090: 2c72 d3bd 713b 823e ca41 ba3d fcac 6d3d
000000a0: ecff 333d e890 4ebd 335e eb3d 35d0 14be
000000b0: 7d98 00be d76e 6fbe a80d 68be 151f 69be
000000c0: 5ad4 70be 9153 823e 2cda 293e 464c f33d
000000d0: c8a8 e5bd dccb 053d e1b6 96bd b1cd 34bd
000000e0: af80 d3bd 439b ea3d 531a 4d3e 2808 bcbd
000000f0: 6d7e 983d 3680 493d c4c5 823d aecb 0abe
00000100: 62d4 92bc a10d 8fbe 993a ae3c 2ead c13c
00000110: 3c46 dfbd 39d5 d93d 2a71 0f3d 1da5 0a3d
00000120: 6122 68bc 0f75 9dbd 40be 28bb e717 42be
00000130: 78af cb3d 1dc5 eabc 4a55 97bd 4363 b93d
00000140: b5fa 983d cbbb 5bbd 7a86 683d 50de 02bb
00000150: 76da 0dbe 7071 813c 3c53 8f3e 3713 213e
00000160: ba3d 583d 0855 04bb 8b13 093c 2447 263e
00000170: 054e 983d afb6 d0bd b186 50bd 3fc4 2ebe
00000180: 3017 4e3d 8430 29be 5a93 373c ac65 2ebd
00000190: 8024 b9bd 8103 763e f9e1 c93d c59d 4a3d
000001a0: 1a85 3a3d 62d3 67bd 7a38 e53c 636c 1ebe
000001b0: 8ed8 dbbd c959 6fbe 6c9b 67be 3f4a 66be
000001c0: 3675 6cbe d212 8d3e 9284 253e be57 493e
000001d0: 7fe8 e3bd 5171 8c3c 354d 85bd 7e8a 12bd
000001e0: 61cc edbd b888 ea3d db1a 543e 3f67 b0bd
000001f0: 30a3 583d 2490 983d 845d 583c 6c9f e0bd
00000200: 3191 2dbc eb67 95be 1eb6 093d 3848 be3d
00000210: ca30 cbbd f3b8 ed3d 874f b43d eb81 bd3c
00000220: c635 363d d8e6 51bd efaf 473d 40ac 47be
00000230: 34fa ea3d 96df 72bc b15e aebd 2a2d 943d
00000240: c4e8 a83d a585 78bd 476c 8b3d 3693 f33b
00000250: 03ec 1cbe f2f3 be3b acb8 5b3e a193 473e
00000260: 1988 c33d 50a8 83bc bc53 9e3c a88b 2f3e
00000270: acc4 8d3d 9cba e5bd c154 bdbc f5ee 38be
00000280: 64e0 383c cd5d 23be e8e8 33bb 5b19 7bbd
00000290: 9311 b3bd 5c9d 7c3e c00b d63d cc70 813c
000002a0: 388c 823c 197c 8bbd f723 d73c 3527 22be
000002b0: 8b36 8bbd b374 74be 7381 6fbe 65b6 74be
000002c0: cdfc 73be cce3 683e 6ad4 0f3e 0f09 b43d
000002d0: e155 f3bd 6dd2 a73c 6304 babd c022 26bd
000002e0: c8ca fcbd cfe1 f33d f44d 5a3e 0db4 afbd
000002f0: a9e6 093e 30e8 223d 4605 e63b 8916 f7bd
00000300: a707 23bc 8624 8bbe ef46 d1bc 1878 483c
00000310: 7982 e3bd d0ba 0b3e fe57 573b 5c13 2d3d
00000320: 9850 6c3b d1bc 45bc 7517 b73c 878f 4dbe
00000330: 0340 c23d a629 43bd 85ff 91bd 3c21 0f3e
00000340: 7ade f83d c759 83bd 359e 543d cc93 063c
00000350: 1dae 0abe 7b35 df3c ba63 633e 07d1 093e
00000360: 94e6 8f3d 9396 6ebb 342f 3f3c f276 e83d
00000370: 23f6 b13d 7ac8 c4bd 5a40 73bd af2d 25be
00000380: 5afa ef3d e8c8 33be 05a7 893d 18de 4ebd
00000390: a779 07be 8e59 933e 6700 c53d 34df af3d
000003a0: 126b 0c3d 5444 23bd f1b9 903d c3eb 07be
000003b0: 2dfe 05be 08ad 68be b3a2 5fbe 17aa 62be
000003c0: aacf 64be 6018 8f3e ae7d 083e 32e5 ec3d
000003d0: 33c0 e2bd 0048 bb3c e221 8ebd ce50 85bd
000003e0: e01d 24be 38ae b23d ae1e 403e c968 9ebd
000003f0: 126c 973d 573f 413d aaa4 6b3c f096 11be

intra_modal_convs.0.convs.<cell___c_c___cell>.lin_key.weight f4 [64, 74]
-0.12819824 0.045489047 0.02405408 -0.11599289 0.116195254 -0.086647704 0.053235948 -0.09605654
-0.12989388 -0.12547892 -0.11286273 0.079257585 -0.091907196 -0.119642235 0.09241449 -0.003435805
-0.034149747 -0.079739764 -0.09290739 -0.04151507 -0.10693215 -0.018853132 -0.05309289 0.01617971
0.040774293 0.049102075 0.08543797 -0.09690631 -0.09624619 -0.10593298 -0.062438376 0.00971102
-0.06283212 0.037331354 0.060380183 0.11472818 0.007685799 0.0637452 0.08150663 0.055094212
0.093474336 0.027215334 0.029203784 0.059825886 -0.02474471 -0.046158466 -0.054812886 0.050630573
-0.076940656 -0.002858418 -0.017532589 0.029289177 -0.046379827 -0.046091318 -0.07222143 -0.0732534
-0.067878775 0.072924964 -0.1560465 0.02256342 -0.0552619 0.031911634 -0.11035049 0.028101696
-0.17997609 0.0909379 0.0332778 -0.07979352 0.09912892 -0.09849343 0.04497489 0.047257483
-0.0054527847 0.17349441 -0.060010303 0.046971586 0.06320829 0.0571613 -0.036135837 -0.13484037
0.15386906 0.0034518393 -0.12960494 -0.13407502 -0.027298653 0.10434628 -0.06538068 -0.062973455
0.123959966 -0.07776629 0.06999471 0.012772544 0.031023614 -0.12929127 -0.085429415 -0.0931728
0.0598262 0.08523799 -0.002507382 0.0899051 -0.056747857 0.064275876 0.01388657 -0.10233176
-0.04819353 0.0043331473 0.035156928 0.14309342 -0.031042654 -0.044244714 0.07722561 0.025410684
-0.05819862 0.032174535 0.12219363 -0.020941513 -0.016085045 -0.03636836 -0.0073697986 -0.11893777
-0.08551867 -0.1187043 -0.109645195 -0.028546777 0.052042436 0.043343913 0.055096455 0.07616446
0.06030054 -0.12585956 0.028853057 -0.12630446 0.16455157 0.07597835 -0.118014574 0.053295474
0.04416686 -0.12318934 0.0064707645 0.08511795 0.10510978 0.0061704037 0.110948585 0.071341485
0.034212276 0.198001 0.17266248 0.052692257 -0.058280542 -0.036177155 -0.08926101 -0.18878427
-0.1096842 -0.044207815 0.16414365 -0.030222712 -0.047716178 0.065867595 0.06377969 -0.007011516
0.17642288 -0.092627466 -0.042505477 0.10965077 0.09822188 0.0725943 0.099933736 -0.041564483
-0.015235957 -0.01677837 -0.02431248 -0.006307182 0.051149014 -0.024364091 -0.076489046 0.00080390216
-0.00018441287 -0.06364294 0.10696524 0.10610717 -0.0014817984 0.15220997 -0.08127797 0.15028
0.12906806 0.070782594 0.02329666 -0.055565625 0.13106862 -0.0745362 0.11018894 -0.04348407
0.11266376 -0.018336121 -0.046085436 -0.061738797 0.056818377 0.03555598 0.08887319 0.069486395
0.07023562 0.09550849 -0.08629813 -0.056205615 0.14711143 0.10643355 -0.1561609 0.046528783
-0.021746667 0.016079381 0.0070733055 0.053225517 -0.03672786 -0.12668484 0.1318161 0.08248325
-0.043163903 -0.06377442 0.06536392 -0.2039173 0.00074962294 0.09415262 -0.052377004 -0.1180805
-0.07151351 -0.12732121 0.04544696 -0.011301542 -0.044106815 -0.028094053 -0.02668532 0.09491088
-0.04377313 0.100582495 -0.023822658 0.019384196 -0.004352717 0.053112753 0.001205208 -0.0185167
0.046710566 0.07606488 -0.07201377 0.02978861 -0.01921954 -0.027071724 -0.14991546 -0.17108354
-0.110794716 -0.07914986 -0.10546104 -0.0534215 -0.030559212 -0.19270541 0.14512171 0.13428219
00000000: 6646 03be b952 3a3d 100d c53c ae8d edbd
00000010: c7f7 ed3d 5a74 b1bd f00d 5a3d 4bb9 c4bd
00000020: e702 05be 8c7d 00be 9324 e7bd cd51 a23d
00000030: d739 bcbd fd06 f5bd cf43 bd3d 3e2b 61bb
00000040: 9be0 0bbd 9a4e a3bd 3b46 bebd b50b 2abd
00000050: 3eff dabd e271 9abc ee77 59bd 508b 843c
00000060: f202 273d 421f 493d 1afa ae3d d176 c6bd
00000070: b91c c5bd 64f3 d8bd 62bf 7fbd f81a 1f3c
00000080: 20ae 80bd c3e8 183d 3651 773d 9cf6 ea3d
00000090: 28d9 fb3b d88c 823d f3ec a63d 78aa 613d
000000a0: 796f bf3d b1f2 de3c c63c ef3c fd0b 753d
000000b0: 6bb5 cabc a910 3dbd 7a83 60bd 0162 4f3d
000000c0: 1093 9dbd 4c54 3bbb 81a0 8fbc dbef ef3c
000000d0: c6f8 3dbd 40ca 3cbd d4e8 93bd e105 96bd
000000e0: 0704 8bbd af59 953d a7ca 1fbe ecd6 b83c
000000f0: 4d5a 62bd c6b5 023d 70ff e1bd 8735 e63c
00000100: a74b 38be a63d ba3d 4d4e 083d c96a a3bd
00000110: 1a04 cb3d ecb6 c9bd 9737 383d 1091 413d
00000120: 46ad b2bb 85a8 313e 5dcd 75bd 4765 403d
00000130: 5973 813d f821 6a3d 2c03 14bd 9813 0abe
00000140: da8f 1d3e 4138 623b 28b7 04be f64a 09be
00000150: 6da1 dfbc 81b3 d53d 4ee6 85bd 3af8 80bd
00000160: b9de fd3d ef43 9fbd 6359 8f3d ef43 513c
00000170: 3c25 fe3c ee64 04be 9ef5 aebd 62d1 bebd
00000180: 510c 753d 4191 ae3d e452 24bb 2a20 b83d
00000190: 7170 68bd 12a3 833d 7f84 633c 5093 d1bd
000001a0: 9466 45bd 13fd 8d3b b600 103d 1587 123e
000001b0: 2a4d febc f239 35bd 7628 9e3d 112a d03c
000001c0: ad61 6ebd 72c9 033d a740 fa3d 898d abbc
000001d0: c9c4 83bc fdf6 14bd 5a7e f1bb a595 f3bd
000001e0: 6a24 afbd 3d1b f3bd a98d e0bd eeda e9bc
000001f0: 732a 553d 6389 313d d2ac 613d 1dfc 9b3d
00000200: b3fd 763d 54e1 00be 3f5d ec3c f555 01be
00000210: 3580 283e 8a9a 9b3d a0b1 f1bd 5b4c 5a3d
00000220: 4fe8 343d b14a fcbd b508 d43b 5252 ae3d
00000230: cc43 d73d 1931 ca3b 0339 e33d 7c1b 923d
00000240: 2c22 0c3d c6c0 4a3e 6fce 303e d6d3 573d
00000250: 94b7 6ebd 7f2e 14bd 7ace b6bd aa50 41be
00000260: 1ca2 e0bd 4113 35bd 4615 283e 9f95 f7bc
00000270: 0a72 43bd 97e5 863d ed9e 823d dcc0 e5bb
00000280: 33a8 343e 78b3 bdbd 391a 2ebd 9590 e03d
00000290: 8e28 c93d 52ac 943d 0faa cc3d 853f 2abd
000002a0: 3ca0 79bc cb72 89bc f72a c7bc 7aac cebb
000002b0: a181 513d 3497 c7bc 4aa6 9cbd f6bc 523a
000002c0: f45e 41b9 3b57 82bd 9710 db3d b74e d93d
000002d0: e738 c2ba eedc 1b3e 1075 a6bd 00e3 193e
000002e0: 6b2a 043e 77f6 903d a3d8 be3c c898 63bd
000002f0: da36 063e 6fa6 98bd bdaa e13d 5a1c 32bd
00000300: 42bc e63d a235 96bc 15c4 3cbd d2e1 7cbd
00000310: 63ba 683d 26a3 113d 2603 b63d e24e 8e3d
00000320: b1d7 8f3d f599 c33d 13bd b0bd dc37 66bd
00000330: 61a4 163e d5f9 d93d a5e8 1fbe f794 3e3d
00000340: 1126 b2bc e8b8 833c 30c7 e73b 0003 5a3d
00000350: f46f 16bd acb9 01be cdfa 063e faec a83d
00000360: a2cc 30bd 2a9c 82bd 85dd 853d b2cf 50be
00000370: 5882 443a 17d3 c03d 4589 56bd 30d4 f1bd
00000380: ad75 92bd 7e60 02be 9726 3a3d 1a2a 39bc
00000390: 59a9 34bd 8025 e6bc 2c9b dabc a360 c23d
000003a0: 744b 33bd 32fe cd3d bc27 c3bc 9bcb 9e3c
000003b0: 3da1 8ebb c28c 593d 12f8 9d3a 56b0 97bc
000003c0: 9453 3f3d e7c7 9b3d f57b 93bd 3e07 f43c
000003d0: 4c72 9dbc 85c5 ddbc 7083 19be 8630 2fbe
000003e0: 57e8 e2bd 5219 a2bd f5fb d7bd 81d0 5abd
000003f0: 5057 fabc 9154 45be c99a 143e 4581 093e

intra_modal_convs.0.convs.<cell___c_c___cell>.lin_key.bias f4 [64]
0.07016247 0.08390546 0.027748978 0.056212194 0.08906061 0.022848008 0.00030007501 0.048604984
0.04160667 0.017558137 -0.104549594 0.04553967 0.03433794 0.05381758 0.0013893947 -0.07741856
0.10098922 -0.020377832 -0.08550872 -0.049053077 0.040919308 0.06321509 -0.08003555 -0.001229414
0.011326439 0.076482184 0.070446774 0.1001431 -0.104848534 -0.034982376 0.033468746 0.07498268
-0.11423966 -0.050438512 -0.052669518 0.07153981 -0.092976995 0.04266627 0.109023325 0.023000484
0.02777394 -0.038525194 -0.0900294 -0.07107684 -0.039235555 0.08075672 -0.03424052 0.06667245
0.008394829 -0.11472993 -0.02930671 -0.09881092 0.047974396 0.066272296 -0.015638286 -0.00961677
-0.068574965 -0.027614607 -0.009260324 -0.06101022 -0.044037938 -0.082823575 0.021862883 0.022895439
00000000: 57b1 8f3d a0d6 ab3d d351 e33c c23e 663d
00000010: 6965 b63d bf2b bb3c 6353 9d39 0516 473d
00000020: c16b 2a3d 15d6 8f3c 191e d6bd ce87 3a3d
00000030: f1a5 0c3d d36f 5c3d 5a1c b63a 9f8d 9ebd
00000040: 70d3 ce3d 69ef a6bc 321f afbd e1eb 48bd
00000050: 019b 273d ea76 813d aee9 a3bd 4a24 a1ba
00000060: 8792 393c b1a2 9c3d 6646 903d d317 cd3d
00000070: d4ba d6bd ae49 0fbd 8616 093d 8590 993d
00000080: 7cf6 e9bd 9d98 4ebd febb 57bd 7783 923d
00000090: b96a bebd d4c2 2e3d 9f47 df3d 836b bc3c
000000a0: 2c86 e33c 98cc 1dbd 5661 b8bd bc90 91bd
000000b0: 76b5 20bd c763 a53d ca3f 0cbd 918b 883d
000000c0: 778a 093c 87f7 eabd a014 f0bc 615d cabd
000000d0: cd80 443d c5b9 873d dd1b 80bc a88f 1dbc
000000e0: 0871 8cbd 0738 e2bc 9db8 17bc dae5 79bd
000000f0: 2061 34bd 689f a9bd ca19 b33c 378f bb3c

intra_modal_convs.0.convs.<cell___c_c___cell>.lin_query.weight f4 [64, 74]
0.12766087 -0.055580474 -0.012133637 -0.05534623 0.105700225 0.10857945 -0.012943745 0.13756968
0.06898177 -0.03786215 0.0020005614 -0.124858096 -0.05039932 0.15011881 0.09124838 0.030408325
0.0012589936 0.088192455 -0.041741617 0.10510069 -0.08779798 0.041677017 0.08574659 0.04317322
-0.050134435 0.056798916 0.011469297 0.06492784 0.13792871 0.16816632 0.11451059 -0.007497943
-0.12332836 0.076172255 0.14479615 -0.055971023 -0.120388605 0.065853 -0.02203824 -0.11853139
-0.11000252 -0.12800065 -0.03848887 0.02108581 0.009603849 -0.05308572 0.074258514 -0.07606619
-0.015130402 -0.02326886 -0.032825965 0.09254681 0.026411682 0.028456207 -0.11216782 -0.012747735
0.0009584432 -0.11641246 0.049117193 -0.065151006 -0.15544973 -0.10905338 0.013655781 0.052314013
-0.026823418 0.062268082 0.046050686 0.014991086 0.021986023 -0.004534117 0.095164545 -0.0053934352
-0.058410462 -0.027466446 -0.044925176 0.08535202 0.09636377 0.052082542 -0.050877906 -0.06448245
0.11626539 0.00574142 0.16225925 -0.005500142 -0.106860325 0.008681993 -0.07173602 0.02695261
-0.092028536 0.03845906 0.08507002 0.10195896 0.054138474 0.06867284 -0.0050130486 -0.02885346
0.102963485 0.045672443 -0.10938634 0.001160322 -0.036173258 0.043164164 0.007729931 0.13138756
0.021609407 -0.06751269 0.11949804 0.08107375 -0.048949067 0.066617765 0.09480146 -0.055920858
0.0577751 0.027377034 -0.049748525 0.061188474 -0.041429523 0.017982498 0.04848973 -0.022273874
0.12593104 -0.084932216 0.034892313 -0.061643135 0.074686624 0.047691394 -0.07616173 0.031777963
0.14731157 -0.08986686 -0.03667049 0.0018542423 -0.08579469 0.008281244 -0.14162174 0.07059803
0.07402306 -0.027734645 0.101086795 0.05475045 0.07882579 -0.13745469 -0.03191388 0.00011773468
0.07355134 0.04133257 0.0068625077 -0.12067884 -0.06211324 0.06432695 0.08383586 0.012552836
-0.11357884 -0.09186642 0.06466024 0.054791965 0.09858441 0.035124183 0.06884555 -0.13225701
-0.09094792 0.03974853 0.005628024 0.10125637 -0.009793466 -0.07370058 0.0022826095 0.10867091
0.09203323 0.01946363 -0.08138065 -0.0427 -0.1351011 0.008654399 -0.112269826 0.029606368
0.0026961816 0.10294029 0.073421955 -0.13066283 -0.10347793 0.056785792 -0.09435277 -0.0010936047
0.010715722 0.078429736 -0.07742186 0.07052584 -0.039220884 0.06947708 0.053303786 -0.04757998
-0.095786355 -0.09730959 -0.049740102 -0.038541507 0.031926125 -0.08102664 -0.08390117 -0.03983858
0.047430784 -0.11166862 0.011476942 0.076288916 -0.11438565 0.026487991 0.13200845 -0.05523835
0.038771115 0.034320425 -0.10145667 -0.07898389 -0.011899892 -0.0770924 0.10546158 0.11163873
-0.04264095 0.060137186 -0.030881751 -0.0638115 0.07386643 0.04085285 -0.043732703 -0.016760288
0.085320644 0.07076903 0.09717693 -0.07647451 0.027831322 0.08547277 -0.054872673 0.07608474
-0.025302816 -0.07171204 -0.027838347 -0.091340534 -0.040172923 -0.024915302 0.10569363 0.09389061
-0.014127572 -0.15809608 0.07081126 -0.06821945 -0.07790926 0.1504757 0.010703544 0.058855288
-0.0229648 0.12297337 -0.10225646 -0.07006551 -0.100046955 0.014706422 -0.11562353 0.08402201
00000000: 88b9 023e 5aa8 63bd 2acc 46bc bab2 62bd
00000010: 5c79 d83d e75e de3d 0012 54bc 11df 0c3e
00000020: 5046 8d3d 5815 1bbd da1b 033b 9ab5 ffbd
00000030: 846f 4ebd bfb8 193e 6ee0 ba3d e11a f93c
00000040: d104 a53a 3f9e b43d 42f9 2abd 083f d73d
00000050: 6dcf b3bd 85b5 2a3d e89b af3d 67d6 303d
00000060: c459 4dbd fba5 683d b8e9 3b3c e3f8 843d
00000070: 2f3d 0d3e cb33 2c3e 8784 ea3d 4eb1 f5bb
00000080: 9493 fcbd 3300 9c3d 7145 143e df41 65bd
00000090: 4d8e f6bd f0dd 863d 8a89 b4bc 96c0 f2bd
000000a0: 0049 e1bd 9a12 03be 81a6 1dbd 26bc ac3c
000000b0: 7659 1d3c 6970 59bd d914 983d 97c8 9bbd
000000c0: 81e5 77bc 569e bebc 8574 06bd 2f89 bd3d
000000d0: 505d d83c fe1c e93c 3eb8 e5bd e0db 50bc
000000e0: 0940 7b3a a869 eebd 1c2f 493d e46d 85bd
000000f0: 372e 1fbe 6157 dfbd 7fbc 5f3c 3847 563d
00000100: c9bc dbbc d10c 7f3d a59f 3c3d 2c9d 753c
00000110: 081c b43c ee92 94bb a1e5 c23d 6abb b0bb
00000120: cf3f 6fbd 5001 e1bc 7603 38bd 0acd ae3d
00000130: 5e5a c53d 8154 553d 5a65 50bd 600f 84bd
00000140: 8c1c ee3d 8622 bc3b 4a27 263e 893a b4bb
00000150: 96d9 dabd eb3e 0e3c 56ea 92bd b8cb dc3c
00000160: 7579 bcbd 3f87 1d3d 3139 ae3d dccf d03d
00000170: 4ec0 5d3d 59a4 8c3d 8044 a4bb 175e ecbc
00000180: 85de d23d 0713 3b3d f205 e0bd f215 983a
00000190: 692a 14bd e8cc 303d 5c4b fd3b 768a 063e
000001a0: 3606 b13c 1844 8abd 63bb f43d ff09 a63d
000001b0: d17e 48bd e56e 883d 4527 c23d 450d 65bd
000001c0: 95a5 6c3d cd45 e03c 1cc5 4bbd c4a0 7a3d
000001d0: 01b2 29bd 0850 933c 2b9d 463d b377 b6bc
000001e0: 11f4 003e f1f0 adbd 3eeb 0e3d 837d 7cbd
000001f0: 4df5 983d 0d58 433d aefa 9bbd 9c29 023d
00000200: d8d8 163e 1e0c b8bd cc33 16bd 0c0a f33a
00000210: 20b5 afbd 0eae 073c 4a05 11be b395 903d
00000220: 6799 973d c433 e3bc 9806 cf3d 0242 603d
00000230: 6a6f a13d ecc0 0cbe 21b8 02bd 53e8 f638
00000240: 16a2 963d 574c 293d e3de e03b 7826 f7bd
00000250: 746a 7ebd d9bd 833d 23b2 ab3d 69aa 4d3c
00000260: 069c e8bd 7624 bcbd 976c 843d 8a6d 603d
00000270: a0e6 c93d 60de 0f3d e5fe 8c3d 626e 07be
00000280: e742 babd 5bcf 223d 4a6b b83b 805f cf3d
00000290: c674 20bc 54f0 96bd d597 153b db8e de3d
000002a0: eb7b bc3d 3172 9f3c e6aa a6bd 32e6 2ebd
000002b0: f157 0abe 2ecb 0d3c b9ed e5bd 0e89 f23c
000002c0: 6cb2 303b 5cd2 d23d 405e 963d 7acc 05be
000002d0: 3dec d3bd 3898 683d 063c c1bd 4957 8fba
000002e0: ff90 2f3c c59f a03d 5a8f 9ebd da6f 903d
000002f0: 14a6 20bd 004a 8e3d 1255 5a3d 3ae3 42bd
00000300: a32b c4bd 404a c7bd 47bc 4bbd b3dd 1dbd
00000310: f8c4 023d 4cf1 a5bd 60d4 abbd c72d 23bd
00000320: c846 423d 84b2 e4bd c909 3c3c 5d3d 9c3d
00000330: 0643 eabd 58fd d83c 392d 073e 9c41 62bd
00000340: 76ce 1e3d 9393 0c3d 84c8 cfbd 4ec2 a1bd
00000350: c4f7 42bc 9fe2 9dbd 3efc d73d d9a2 e43d
00000360: 47a8 2ebd 6952 763d bafb fcbc 9baf 82bd
00000370: 4847 973d 5155 273d 1021 33bd df4c 89bc
00000380: 97bc ae3d 5aef 903d b304 c73d ab9e 9cbd
00000390: 83fe e33c 590c af3d 2bc2 60bd 51d2 9b3d
000003a0: da47 cfbc c3dd 92bd 3f0d e4bc bf10 bbbd
000003b0: 5d8c 24bd 2d1b ccbc e775 d83d b849 c03d
000003c0: 5577 67bc f0e3 21be 7e05 913d a4b6 8bbd
000003d0: e48e 9fbd 4d16 1a3e eb5d 2f3c 3e12 713d
000003e0: ad20 bcbc 76d9 fb3d d66b d1bd 827e 8fbd
000003f0: 6be5 ccbd 34f3 703c 07cc ecbd bb13 ac3d

intra_modal_convs.0.convs.<cell___c_c___cell>.lin_query.bias f4 [64]
-0.03961982 0.061101753 0.09591727 0.14405882 -0.017110508 -0.10036936 -0.13633034 0.04206075
0.02839393 -0.04587621 -0.06291916 0.0585999 0.10896535 0.05207655 -0.040265903 -0.034249175
-0.0032556115 -0.023155957 0.031744823 0.15812962 0.004925456 0.026131865 0.056752287 0.11500488
0.072176784 -0.055910565 0.059114877 0.07127027 -0.13118708 -0.025215046 0.0864535 0.09780026
0.03814276 -0.10018091 0.010406438 -0.08017498 0.16280048 0.0059792176 0.029826034 -0.10469392
-0.010263007 -0.012306827 -0.07072956 0.07415993 0.094395995 0.116653666 -0.033174552 0.12161404
0.0766965 -0.14494908 -0.11702091 -0.065975696 0.0065409876 -0.037822776 0.036981028 -0.21220137
0.0044815377 0.07834377 0.06307392 0.0124262 0.09658095 -0.085428074 0.06604407 0.09347029
00000000: 6448 22bd d545 7a3d 4670 c43d 2884 133e
00000010: 562b 8cbc 738e cdbd 2e9a 0bbe e547 2c3d
00000020: 639a e83c b1e8 3bbd c3db 80bd 7306 703d
00000030: 3a29 df3d 384e 553d dced 24bd dd48 0cbd
00000040: 195c 55bb 90b1 bdbc dc06 023d bbec 213e
00000050: b865 a13b 7e12 d63c 1675 683d ae87 eb3d
00000060: 6cd1 933d 7a02 65bd 7122 723d 26f6 913d
00000070: e855 06be c98f cebc 880e b13d 814b c83d
00000080: 953b 1c3d a62b cdbd c47f 2a3c c832 a4bd
00000090: 2bb5 263e 50ed c33b ba55 f43c c469 d6bd
000000a0: 2c26 28bc 93a2 49bc a9da 90bd 29e1 973d
000000b0: b052 c13d 1ee8 ee3d 0ae2 07bd c810 f93d
000000c0: 0e13 9d3d 886d 14be a9a8 efbd 441e 87bd
000000d0: c855 d63b 0eec 1abd 6b79 173d 514b 59be
000000e0: ddd9 923b b372 a03d e62c 813d 4397 4b3c
000000f0: 3ccc c53d eaf4 aebd 1d42 873d 5a6d bf3d

intra_modal_convs.0.convs.<cell___c_c___cell>.lin_value.weight f4 [64, 74]
0.02659076 -0.07711683 0.06701076 -0.034833986 0.12553787 0.04342258 -0.01085302 -0.0100946585
-0.0047013587 -0.1313146 -0.10025438 -0.07382242 -0.060559306 0.015266445 -0.031468358 0.04571998
-0.15515946 -0.011362898 -0.15351985 0.06647159 0.09626495 -0.0686469 0.05017084 0.056710806
0.014000459 0.026364934 0.00084544107 0.006556015 0.12299727 -0.013152301 -0.038197685 -0.037443366
0.07181175 0.030952306 -0.062220212 -0.03719654 -0.16109422 0.12380124 -0.032332376 0.13386132
-0.041415665 -0.07267629 -0.09117229 -0.12960766 0.149806 -0.06471384 -0.08749931 -0.036964327
-0.038524233 0.027861234 -0.09017416 -0.04931018 -0.16430035 0.044110406 -0.09973441 0.06802934
-0.050353315 0.06664825 0.023389667 0.0143390335 0.18159245 0.012570432 0.059636846 0.09345484
-0.08034267 0.04724834 -0.0420224 0.02627448 -0.004442353 -0.060106818 -0.044671383 -0.11938468
-0.026851498 0.017775828 -0.037846584 -0.054963186 0.0258792 0.15192509 0.004911966 0.14888503
-0.10772451 0.05729809 -0.05518604 -0.06891073 0.04665189 0.06381173 0.0713703 -0.065203734
-0.045082398 -0.08846231 -0.0013821276 0.12875524 0.11283354 -0.17117634 0.035608817 -0.010156479
-0.10743743 0.047407955 -0.009534258 0.017862242 0.11465629 -0.09010495 0.019749613 0.03897219
0.008241976 -0.050613496 0.115054324 -0.09112397 0.062497117 -0.063002214 0.055148832 -0.07622545
-0.043595165 0.03071702 0.046133798 -0.07167597 -0.1116732 -0.020489415 -0.07192571 -0.052126933
-0.090236105 -0.058386534 -0.061516337 -0.025322543 -0.00083665975 -0.06582133 0.08259404 -0.10959522
0.057573605 0.10547938 0.00062150665 0.0010703708 -0.11365773 -0.07208685 0.18180019 -0.13834485
-0.04569512 0.004105416 0.12491549 0.17214759 -0.028850727 -0.15331765 -0.12504889 0.0127924
0.1343752 0.14025165 -0.0003627359 0.03749989 -0.07971201 0.09814952 0.0728812 -0.1009825
0.12414356 -0.1655387 0.0964453 0.049526818 0.039636485 0.01662981 -0.03307863 -0.0710538
0.10284471 -0.099697046 -0.12856099 -0.009632096 -0.023711637 -0.03454933 0.015013864 0.067113645
-0.002449203 0.07555654 -0.072128095 -0.092213914 -0.09221048 0.05866931 -0.10865825 -0.08126918
-0.024627201 0.04475603 -0.051163085 0.09187696 0.0021279266 -0.024919461 0.019343808 0.011888197
0.11328783 0.054903463 -0.11931319 0.01644733 -0.007424023 0.007713591 0.037687927 0.092692085
-0.029763237 -0.03550486 -0.049702432 -0.011609724 -0.11498099 -0.06864631 -0.08344271 0.05638805
0.10191066 0.079744674 0.10461996 0.042282537 0.0021566162 0.07912516 -0.02844897 0.13769905
0.062845476 0.06185625 0.083258204 0.039938822 0.12970065 -0.10176516 -0.11055838 -0.027450664
-0.039398767 -0.07350086 0.07026177 -0.16360968 0.06925438 -0.06666429 -0.1003087 -0.052160855
-0.059054796 0.083245195 -0.07342067 0.0015192112 -0.09814878 0.06915045 -0.074450284 0.03212788
-0.033260994 0.13196003 0.04264575 0.12827915 0.14924374 -0.006463048 -0.031142782 -0.024278054
0.1669307 -0.12678818 0.0064595486 -0.03673371 -0.071625575 0.118501216 -0.054628324 0.06978733
0.06265134 0.0027264846 0.050492138 -0.07885976 0.02808486 -0.22061402 0.1503451 -0.06339787
00000000: ded4 d93c 6eef 9dbd f03c 893d 15ae 0ebd
00000010: 008d 003e e0db 313d ddd0 31bc 1164 25bc
00000020: db0d 9abb 5677 06be 2b52 cdbd 3530 97bd
00000030: 090d 78bd 1d20 7a3c f7e4 00bd e044 3b3d
00000040: 1fe2 1ebe 732b 3abc 4f34 1dbe 4222 883d
00000050: 8f26 c53d bf96 8cbd f07f 4d3d 9749 683d
00000060: 2e62 653c 46fb d73c 97a0 5d3a d7d3 d63b
00000070: fee5 fb3d c07c 57bc 2d75 1cbd 375e 19bd
00000080: 0a12 933d b18f fd3c 9fda 7ebd 665b 18bd
00000090: e2f5 24be 818b fd3d f46e 04bd f112 093e
000000a0: 79a3 29bd 4fd7 94bd 8ab8 babd dfb7 04be
000000b0: be66 193e b188 84bd d732 b3bd e867 17bd
000000c0: 96cb 1dbd 3e3d e43c 3bad b8bd 79f9 49bd
000000d0: 5a3e 28be 1dad 343d 8e41 ccbd f752 8b3d
000000e0: 473f 4ebd e17e 883d b09b bf3c 44ee 6a3c
000000f0: 5ff3 393e 37f4 4d3c c445 743d 4065 bf3d
00000100: b38a a4bd 7a87 413d ae1f 2cbd 943d d73c
00000110: 2891 91bb 9132 76bd 57f9 36bd f57f f4bd
00000120: acf7 dbbc 9d9e 913c 0505 1bbd 1421 61bd
00000130: 9e00 d43c 4092 1b3e 8ff4 a03b 5175 183e
00000140: ab9e dcbd 67b1 6a3d c20a 62bd 1221 8dbd
00000150: 0d16 3f3d b9af 823d 982a 923d 8989 85bd
00000160: 52a8 38bd ba2b b5bd 8228 b5ba 6ad8 033e
00000170: 4515 e73d da48 2fbe 8dda 113d 5c67 26bc
00000180: 2808 dcbd d82e 423d 9435 1cbc d653 923c
00000190: ebd0 ea3d f288 b8bd f1c9 a13c 4ea1 1f3d
000001a0: 5a09 073c 1950 4fbd 9aa1 eb3d 349f babd
000001b0: fafc 7f3d 4e07 81bd bee3 613d 171c 9cbd
000001c0: d890 32bd 43a2 fb3c cbf6 3c3d daca 92bd
000001d0: ebb4 e4bd 6bd9 a7bc c94d 93bd 0d83 55bd
000001e0: b5cd b8bd b826 6fbd 8ef8 7bbd 3971 cfbc
000001f0: 4953 5bba 55cd 86bd 1027 a93d 7573 e0bd
00000200: 4dd2 6b3d 9305 d83d 9bec 223a af4b 8c3a
00000210: 62c5 e8bd 45a2 93bd d429 3a3e 46aa 0dbe
00000220: ce2a 3bbd ba86 863b b1d3 ff3d 7547 303e
00000230: 5c58 ecbc 4dff 1cbe d10c 00be 3797 513c
00000240: a799 093e 219e 0f3e 972d beb9 7c99 193d
00000250: 0d40 a3bd 9e02 c93d bd42 953d eacf cebd
00000260: fb3e fe3d fa82 29be 1d85 c53d a2dc 4a3d
00000270: de59 223d 3d3b 883c 757d 07bd a884 91bd
00000280: 3fa0 d23d f72d ccbd 7ea5 03be f0cf 1dbc
00000290: e83e c2bc 9983 0dbd b6fc 753c e172 893d
000002a0: cf82 20bb 63bd 9a3d e5b7 93bd a6da bcbd
000002b0: d9d8 bcbd 3b4f 703d 3788 debd 7570 a6bd
000002c0: fcbe c9bc 1952 373d 6290 51bd fd29 bc3d
000002d0: af74 0b3b e623 ccbc e876 9e3c b6c6 423c
000002e0: 7303 e83d 74e2 603d 795a f4bd 8dbc 863c
000002f0: 3845 f3bb 4bc2 fc3b a85e 1a3d 59d5 bd3d
00000300: 08d2 f3bc 8b6d 11bd c794 4bbd b636 3ebc
00000310: 277b ebbd 7096 8cbd 03e4 aabd 28f7 663d
00000320: 89b6 d03d 2d51 a33d fd42 d63d 7430 2d3d
00000330: 0456 0d3b 5f0c a23d d00d e9bc fb00 0d3e
00000340: 21b5 803d fb5c 7d3d 4783 aa3d e496 233d
00000350: 3fd0 043e 416a d0bd 6f6c e2bd 37e0 e0bc
00000360: 9a60 21bd 9e87 96bd 67e5 8f3d 4c89 27be
00000370: 3ed5 8d3d 4a87 88bd a66e cdbd 9fa6 55bd
00000380: 71e3 71bd 757c aa3d 945d 96bd 4520 c73a
00000390: 3a02 c9bd c09e 8d3d 6479 98bd 8698 033d
000003a0: ae3c 08bd 8820 073e 4fad 2e3d 9c5b 033e
000003b0: 5ad3 183e fac7 d3bb 261f ffbc c5e2 c6bc
000003c0: e2ef 2a3e c3d4 01be 9faa d33b 1676 16bd
000003d0: 6eb0 92bd c4b0 f23d f3c1 5fbd a9ec 8e3d
000003e0: 594f 803d d2ae 323b d8d0 4e3d 3a81 a1bd
000003f0: 3812 e63c a4e8 61be 11f4 193e bed6 81bd

intra_modal_convs.0.convs.<cell___c_c___cell>.lin_value.bias f4 [64]
-0.017342843 0.013281917 -0.061356872 0.00045086522 0.0009044359 -0.07287999 0.08358431 -0.07149681
0.117266 0.08739864 -0.104287446 0.099884965 -0.07222831 -0.0712398 0.05474326 0.09028312
-0.09478686 -0.084639184 0.0014481747 0.047416374 -0.13142736 0.0039612395 -0.06795231 -0.056546725
0.09968346 -0.075155415 -0.10567799 0.09479889 -0.08497097 0.09920403 -0.026768776 0.032431215
0.00519931 0.012634786 0.00063425646 0.11140963 0.030439282 -0.06446108 -0.10319592 0.006225578
0.0070857513 0.0854381 -0.036547206 0.041125428 -0.014077707 -0.039828356 0.10097616 0.0560432
0.04059887 -0.021527208 -0.0018427034 -0.02689692 0.112999134 0.045969907 0.026821243 -0.06890417
-0.076914564 -0.0051052137 0.01780663 0.13000683 0.08853975 0.033059478 -0.047598083 0.049136423
00000000: 9412 8ebc 669c 593c 5851 7bbd 1b62 ec39
00000010: aa17 6d3a 1b42 95bd 402e ab3d eb6c 92bd
00000020: 2829 f03d 0ffe b23d a894 d5bd 7d90 cc3d
00000030: 70ec 93bd 2ce6 91bd 783a 603d 5be6 b83d
00000040: 9d1f c2bd 4f57 adbd aed0 bd3a ac37 423d
00000050: e594 06be 49cd 813b 952a 8bbd 8a9d 67bd
00000060: d826 cc3d 15eb 99bd b46d d8bd ec25 c23d
00000070: 4305 aebd 7c2b cb3d 314a dbbc 98d6 043d
00000080: f95e aa3b 2202 4f3c 3b44 263a bb2a e43d
00000090: cd5b f93c 2c04 84bd 6258 d3bd efff cb3b
000000a0: 972f e83b 2cfa ae3d 86b2 15bd 2373 283d
000000b0: 2fa6 66bc 0f23 23bd 97cc ce3d 8e8d 653d
000000c0: 004b 263d d459 b0bc de86 f1ba ee56 dcbc
000000d0: 176c e73d f14a 3c3d 39b8 db3c a11d 8dbd
000000e0: 6285 9dbd a349 a7bb 36df 913c 8320 053e
000000f0: 5454 b53d 6069 073d 35f6 42bd 4643 493d

intra_modal_convs.0.convs.<cell___c_c___cell>.lin_edge.weight f4 [64, 1]
-0.37790966 0.1751594 0.30031905 0.62094074 0.0034071833 -0.07897915 0.8114464 -0.56233627
-0.5083666 -0.52301687 -0.2068478 0.5457782 -0.45699206 -0.40343514 0.7769661 0.38653788
-0.8749646 0.7785396 0.6239969 0.561106 0.9060775 0.5005742 -0.66460705 -0.0071889684
0.07438762 0.32380617 0.54037833 -0.58011293 -0.12385085 -0.6682601 -0.4332688 0.08431483
-0.25008827 -0.71006435 -0.7828947 -0.9294226 -0.8483187 -0.09093845 0.9416096 0.6997715
0.7501122 0.5723728 0.867855 -0.31594414 0.8516595 -0.56536233 -0.3296367 -0.47193915
-0.7627135 -0.45388812 0.4576236 0.44701678 0.08551528 0.7369172 0.41532984 0.08171642
0.5235558 -0.06313294 -0.19801897 -0.62606 -0.18994056 -0.14601444 0.20775269 0.2727107
00000000: 607d c1be fc5c 333e 6bc3 993e f9f5 1e3f
00000010: 0d4b 5f3b d2bf a1bd f4ba 4f3f 45f5 0fbf
00000020: 5024 02bf 6fe4 05bf e9cf 53be 1fb8 0b3f
00000030: ddfa e9be 0d8f cebe 40e7 463f 4be8 c53e
00000040: aefd 5fbf 5f4e 473f 43be 1f3f a5a4 0f3f
00000050: b2f4 673f a125 003f b023 2abf 7091 ebbb
00000060: 8958 983d ecc9 a53e 3c56 0a3f 4882 14bf
00000070: 84a5 fdbd 1813 2bbf 68d5 ddbe 41ad ac3d
00000080: 920b 80be c7c6 35bf c96b 48bf a4ee 6dbf
00000090: 6a2b 59bf f03d babd 540d 713f 3a24 333f
000000a0: 5a07 403f 0687 123f bf2b 5e3f 6ec3 a1be
000000b0: 5b06 5a3f 96bb 10bf 24c6 a8be 02a2 f1be
000000c0: 3141 43bf 0664 e8be a44d ea3e 62df e43e
000000d0: a322 af3d 9ba6 3c3f 1da6 d43e f05a a73d
000000e0: c107 063f d84b 81bd 7cc5 4abe 7845 20bf
000000f0: c77f 42be cf84 15be 1fbd 543e bda0 8b3e

intra_modal_convs.0.convs.<cell___c_c___cell>.lin_skip.weight f4 [64, 74]
0.11789712 0.032269217 0.10200149 0.023502158 -0.011220255 0.019917564 0.110903144 -0.05912525
0.12738034 0.04040879 0.082988895 -0.05064783 -0.06502268 0.03710917 0.036161967 0.149014
-0.1497429 0.029013224 -0.151472 -0.0009235683 0.007987149 0.07943491 0.017438322 -0.08056551
0.123332724 -0.04063237 -0.09261086 -0.06301441 -0.020487543 -0.022701045 -0.011434113 -0.05357777
-0.107751995 -0.073141 -0.021352982 0.052424792 -0.078914076 0.009503541 0.037310943 0.08482383
-0.1047095 -0.02785325 -0.0036998529 0.031792738 0.12229742 -0.09002784 -0.044215046 0.11374138
0.021720517 0.034624625 0.0666571 -0.086664945 -0.056831013 0.1440853 0.030346135 -0.09234288
-0.04733463 0.0038045826 -0.033381958 -0.058077034 0.047564957 0.10312199 -0.06736679 -0.07665594
-0.11034012 0.044818264 -0.012447878 -0.100083075 0.087719895 -0.16331737 0.11818065 -0.049511645
0.10112895 -0.122642264 -0.09294683 0.09625578 0.01869907 0.12231008 0.014395988 0.10337416
0.01734352 0.085377276 -0.0073767873 0.07925704 -0.15553482 0.12191965 -0.011196618 -0.038468514
0.03290193 -0.023125023 -0.004393693 0.059799563 0.05650521 -0.060497183 -0.056879893 -0.057830725
0.021712698 -0.09751944 0.013897784 0.03624644 -0.110695824 -0.07651555 0.040753208 0.10848607
0.012667987 -0.06086185 0.11827358 0.026459945 0.07317214 0.05547287 0.08595577 0.048096616
-0.01638099 0.085085645 0.09430204 -0.07204267 0.096000604 -0.1174803 0.1192363 0.010579225
-0.072735734 0.08109717 -0.02344942 -0.062204286 0.042420648 0.06706717 0.07283696 0.032659102
-0.0690013 -0.07434368 0.045519825 0.027496481 -0.033674534 0.07956605 0.09839838 -0.13632733
0.0027492684 -0.059128996 0.028920252 0.112223625 -0.0012045628 -0.046588745 0.07143598 -0.11255131
-0.06273986 -0.01786162 -0.054442603 -0.03275428 0.007108759 0.021216175 0.04543399 -0.10327883
-0.029470377 0.021467146 0.15623008 0.066215396 -0.09469287 -0.072097704 0.017174354 -0.06765839
-0.09576638 -0.0592677 -0.08136316 -0.1247323 -0.051538963 -0.053622294 -0.05608497 0.058122627
-0.09293686 0.11160872 0.041143272 -0.106331214 0.08445013 -0.117364384 -0.12077059 -0.0071313814
-0.0978792 0.016195513 0.037382353 0.05693377 -0.23860234 0.062886864 0.05274338 0.022043021
0.026581364 -0.09158921 -0.054804344 0.050542902 0.010069578 0.03505186 0.06794491 -0.03873758
0.1428349 0.031623382 -0.010336259 -0.09873571 -0.06731674 -0.022551643 -0.048268866 -0.018958058
0.05342834 0.01590267 -0.012733281 0.13892072 -0.038544588 -0.020752018 0.07464598 -0.039135374
0.11461465 -0.004695239 -0.1184515 0.0993806 0.033378575 -0.05469511 -0.10858853 0.039794482
0.079550155 0.08199194 0.08548959 -0.11462513 0.11185435 0.09112351 0.034801226 0.08063922
0.061573617 -0.08248868 0.04477098 -0.047666937 -0.058445558 -0.033969715 0.011874375 0.08681876
-0.03992482 -0.009286641 0.006902772 0.11376191 -0.08635976 0.07821007 -0.029448712 0.09787852
0.08158922 0.0003512803 0.09041278 -0.08419694 -0.018202314 -0.086859055 -0.100089006 -0.0114468215
-0.0010534648 -0.005130833 0.087659255 -0.025959397 0.06979663 -0.103503056 0.08794602 -0.0135149285
00000000: 0c74 f13d ba2c 043d 28e6 d03d 9987 c03c
00000010: 29d5 37bc 292a a33c 3021 e33d 512d 72bd
00000020: fe6f 023e b083 253d 15f6 a93d 1974 4fbd
00000030: 9c2a 85bd c9ff 173d 921e 143d 2097 183e
00000040: 3456 19be 24ad ed3c 7a1b 1bbe 9f1b 72ba
00000050: 88dc 023c c5ae a23d d0da 8e3c 88ff a4bd
00000060: de95 fc3d 216e 26bd c3aa bdbd b30d 81bd
00000070: 7ed5 a7bc 8bf7 b9bc 2556 3bbc 5d74 5bbd
00000080: 14ad dcbd f3ca 95bd 73ec aebc 61bb 563d
00000090: b49d a1bd bdb4 1b3c 5cd3 183d 1eb8 ad3d
000000a0: ef71 d6bd 802c e4bc 3b79 72bb 1a39 023d
000000b0: 1277 fa3d 8460 b8bd d61a 35bd 3ef1 e83d
000000c0: 3aef b13c 8dd2 0d3d 8583 883d 647d b1bd
000000d0: a3c7 68bd 198b 133e 7598 f83c 441e bdbd
000000e0: f5e1 41bd 4e56 793b 85bb 08bd 2fe2 6dbd
000000f0: 79d3 423d 9f31 d33d 99f7 89bd cafd 9cbd
00000100: 00fa e1bd 5b93 373d 2ff2 4bbc 5bf8 ccbd
00000110: 7da6 b33d ab3c 27be b208 f23d b9cc 4abd
00000120: b21c cf3d de2b fbbd e85a bebd c021 c53d
00000130: cb2e 993c b57d fa3d 26dd 6b3c d5b5 d33d
00000140: ff13 8e3c 48da ae3d fab8 f1bb 8451 a23d
00000150: 8544 1fbe 02b1 f93d 0572 37bc 2991 1dbd
00000160: 2dc4 063d b070 bdbc f8f8 8fbb 63f0 743d
00000170: 0272 673d e5cb 77bd e4fa 68bd e9df 6cbd
00000180: d4de b13c 46b8 c7bd 88b3 633c 2677 143d
00000190: 7eb4 e2bd 2fb4 9cbd d6ec 263d f22d de3d
000001a0: 638d 4f3c 464a 79bd 6b39 f23d 87c2 d83c
000001b0: 46db 953d 8537 633d 9409 b03d f500 453d
000001c0: 6d31 86bc 6241 ae3d 6e21 c13d 1b8b 93bd
000001d0: f79b c43d 8399 f0bd 2932 f43d 7c54 2d3c
000001e0: 79f6 94bd 4616 a63d 0019 c0bc ecc9 7ebd
000001f0: 46c1 2d3d 835a 893d 8b2b 953d 8dc5 053d
00000200: 8e50 8dbd 8041 98bd ff72 3a3d 4d40 e13c
00000210: 4fee 09bd 86f3 a23d 1785 c93d 6499 0bbe
00000220: 122d 343b 3f31 72bd 2aea ec3c 80d5 e53d
00000230: 6ce2 9dba d7d3 3ebd 074d 923d 4d81 e6bd
00000240: c17d 80bd 8852 92bc 35ff 5ebd 5a29 06bd
00000250: 98f0 e83b 8bcd ad3c fe18 3a3d da83 d3bd
00000260: dc6b f1bc dedb af3c c7fa 1f3e f09b 873d
00000270: 56ee c1bd f6a7 93bd 3bb1 8c3c 7b90 8abd
00000280: 2a21 c4bd b0c2 72bd baa1 a6bd a673 ffbd
00000290: 851a 53bd 0da3 5bbd 5ab9 65bd fe11 6e3d
000002a0: ae55 bebd 1d93 e43d d985 283d 2ec4 d9bd
000002b0: 31f4 ac3d bd5c f0bd 9256 f7bd 5dae e9bb
000002c0: e474 c8bd 74ac 843c 3d1e 193d 6333 693d
000002d0: 2c54 74be d4ca 803d 7109 583d 9193 b43c
000002e0: 29c1 d93c 2093 bbbd 857a 60bd 1306 4f3d
000002f0: dffa 243c 8a92 0f3d b326 8b3d 4cab 1ebd
00000300: 5043 123e 8587 013d 6a59 29bc f335 cabd
00000310: 5cdd 89bd 39be b8bc 93b5 45bd ee4d 9bbc
00000320: add7 5a3d 5146 823c 409f 50bc 3c41 0e3e
00000330: eee0 1dbd 2300 aabc fedf 983d 6a4c 20bd
00000340: 16bb ea3d 85da 99bb b396 f2bd 0e88 cb3d
00000350: f9b7 083d fb07 60bd aa63 debd 8aff 223d
00000360: 31eb a23d 64eb a73d 2b15 af3d 95c0 eabd
00000370: e513 e53d f69e ba3d bb8b 0e3d 2d26 a53d
00000380: 9e34 7c3d d3ef a8bd c661 373d 683e 43bd
00000390: 9c64 6fbd d423 0bbd bd8c 423c 09ce b13d
000003a0: 3588 23bd ff26 18bc a630 e23b 01fc e83d
000003b0: 63dd b0bd 9a2c a03d 6d3e f1bc 8974 c83d
000003c0: 4018 a73d 0b2c b839 562a b93d 726f acbd
000003d0: 051d 95bc 29e3 b1bd 77fb ccbd 738b 3bbc
000003e0: 6a14 8aba 8c20 a8bb b286 b33d cda8 d4bc
000003f0: 89f1 8e3d 69f9 d3bd 0b1d b43d b86d 5dbc

intra_modal_convs.0.convs.<cell___c_c___cell>.lin_skip.bias f4 [64]
-0.07445663 0.08956345 -0.010285296 0.015519295 -0.09840568 0.030255338 0.06489474 -0.04347708
0.041998107 0.0035475704 -0.052045234 -0.05348143 0.12220793 -0.08188297 -0.07212073 -0.026974127
-0.041132085 0.014157297 0.0459393 -0.033857502 0.07219105 -0.09743113 0.017754871 0.09089478
-0.05231661 -0.011812936 0.03889725 -0.0807477 -0.017443333 0.046329692 0.028047653 -0.052724447
-0.018218806 -0.051185187 -0.04367089 -0.10066416 0.013786238 0.04511065 0.023140535 0.07160498
-0.036522813 -0.007202512 -0.049339954 0.12480115 -0.0028733092 0.104152344 0.081654444 0.13557704
0.018922225 0.098101355 0.0200506 -0.10175162 -0.10562918 -0.06503896 -0.025309125 -0.07399611
-0.017313156 -0.0399427 6.696826e-05 0.0022133824 -0.020106338 0.00858201 0.03274734 0.08385259
00000000: b87c 98bd 0b6d b73d a883 28bc a444 7e3c
00000010: eb88 c9bd 0bda f73c 89e7 843d 0615 32bd
00000020: 3506 2c3d 5b7e 683b 622d 55bd 580f 5bbd
00000030: 2748 fa3d 42b2 a7bd 09b4 93bd d8f8 dcbc
00000040: 1e7a 28bd 02f4 673c d92a 3c3d 2aae 0abd
00000050: e7d8 933d f989 c7bd aa72 913c 0b27 ba3d
00000060: f149 56bd 0b8b 41bc b952 1f3d 0d5f a5bd
00000070: 52e5 8ebc 34c4 3d3d 31c4 e53c 97f5 57bd
00000080: 9b3f 95bc 8fa7 51bd 3fe0 32bd 0329 cebd
00000090: acdf 613c f2c5 383d 3891 bd3c a2a5 923d
000000a0: f298 15bd 0d03 ecbb b118 4abd bf97 ff3d
000000b0: 214e 3cbb d34d d53d 723a a73d b5d4 0a3e
000000c0: c802 9b3c 5de9 c83d 2841 a43c 2763 d0bd
000000d0: 1d54 d8bd 2533 85bd 1555 cfbc 468b 97bd
000000e0: 52d4 8dbc f59a 23bd 5071 8c38 650e 113b
000000f0: 0cb6 a4bc 8f9b 0c3c 1322 063d e8ba ab3d

intra_modal_convs.0.convs.<gene___g_g___gene>.lin_key.weight f4 [64, 215]
0.065162554 -0.05391449 0.036408667 0.036168013 0.013140525 -0.06500538 -0.01017538 -0.007244469
0.04993677 -0.0054065436 0.046260577 0.010360689 0.050144788 -3.912509e-05 0.040053193 -0.037830662
-0.026390951 0.027816152 0.004853676 0.03307357 0.033775285 0.04699112 0.0013316103 0.02181514
-0.040410418 -0.040540177 -0.037436217 -0.030029835 0.07708956 0.07987447 -0.049747877 -3.2994518e-05
0.04078131 0.039412506 0.029047262 -0.014216246 0.07756091 -0.064205654 0.048847444 0.04375711
0.004213268 -0.008333273 -0.04272647 -0.013691447 -0.04398034 0.027387075 -0.044592284 -0.013017088
0.035543293 0.06359976 -0.059439912 -0.0071928524 -0.023445062 -0.009740637 -0.047380436 0.030986775
0.08576195 0.021692514 -0.03775513 0.06577258 -0.038846526 0.05949017 -0.0026570107 -0.057675213
0.05379366 0.021180477 0.0032766305 0.0462055 0.07910741 -0.016567256 -0.073409125 -0.04496373
-0.04722486 -0.0046831733 -0.011116844 0.044790965 0.04081381 0.059729185 -0.0016711833 0.067090414
-0.026662845 0.05355457 -0.03253854 0.061097063 -0.036141515 0.001767042 0.024297582 -0.0314871
-0.02349655 0.041855548 0.00037680156 -0.02470755 0.068246186 -0.060374647 -0.009007122 -0.017670589
0.04899887 0.058201008 0.06013736 0.021295015 0.057088982 0.078735135 0.020524144 0.056124795
-0.0023101906 0.05060486 -0.0023827045 -0.05503762 -0.03336692 -0.009807362 -0.0591721 0.009596392
0.015626887 -0.009996804 0.026315324 0.059859682 -0.0335284 -0.033737 0.04925972 0.03238987
-7.631009e-05 -0.0018146534 0.0307974 -0.014778845 -0.06371017 0.02259551 0.003855979 0.017694179
-0.009774022 -0.05663514 0.028754188 -0.025210388 0.043010138 0.018903745 -0.05380727 0.025942914
-0.052551568 0.018098641 0.022612076 0.010928653 -0.014892339 -0.05331428 0.074353896 -0.0022864563
-0.029158404 -0.021571878 -0.050515454 0.0041215774 -0.019331321 -0.014534322 0.015552078 0.061781283
-0.004728879 -0.04272672 -0.039701644 0.046417754 -0.0366546 -7.74729e-05 -0.028446184 -0.051700894
-0.016423937 -0.06412556 -0.046686467 0.058489595 -0.035381395 0.07124489 0.06579329 0.025698142
0.034630835 -0.003641326 -0.03461123 -0.009983834 -0.015329612 -0.03379819 -0.02605884 0.058912486
0.050506514 -0.029798731 0.059996214 -0.0610859 -0.02762125 0.10093339 0.068084694 0.071941696
0.017326439 0.064687945 -0.045205787 -0.06596193 -0.049575876 -0.07063237 0.05061362 0.033693597
0.020915879 -0.0032748224 0.015023282 0.027310591 0.0076058605 -0.06974009 0.0667127 -0.08111682
-0.028576303 0.029992426 0.07338068 0.08994033 -0.0077153696 0.07357059 -0.051390354 -0.0098675415
0.080626905 0.00682567 0.06796065 0.05575278 0.018577738 -0.065221526 -0.049499393 -0.003549529
-0.04176929 0.04634442 0.037885636 0.061761238 0.046226785 0.023257958 0.057075858 0.015150026
-0.001468079 0.0007505434 0.011789198 0.02634296 -0.00204484 -0.041169085 -0.057567343 0.027587293
-0.028321998 0.017544217 -0.03321908 -0.004494662 0.040227234 -0.023827074 0.07340781 0.019481756
0.04559963 0.028223202 -0.053444702 -0.010781421 0.019843237 0.058612384 0.0315688 -0.00038808427
0.08468398 0.048883516 0.03687215 -0.010942869 0.019269982 0.00020175564 0.09046729 0.027854221
00000000: f273 853d 71d5 5cbd 4121 153d e924 143d
00000010: 5b4b 573c 8a21 85bd a3b6 26bc 0363 edbb
00000020: 808a 4c3d 6029 b1bb bb7b 3d3d e1bf 293c
00000030: 9f64 4d3d 3f1a 24b8 d10e 243d 53f4 1abd
00000040: d631 d8bc b3de e33c 960b 9f3b 2778 073d
00000050: f457 0a3d c379 403d 6d89 ae3a aab5 b23c
00000060: 6585 25bd 750d 26bd b856 19bd 2101 f6bc
00000070: 22e1 9d3d 3a95 a33d 6ec4 4bbd 9863 0ab8
00000080: 4e0a 273d 026f 213d 86f4 ed3c 42eb 68bc
00000090: 41d8 9e3d 417e 83bd 4214 483d a83a 333d
000000a0: 740f 8a3b 4888 08bc f301 2fbd 1752 60bc
000000b0: bb24 34bd dc5a e03c 66a6 36bd a045 55bc
000000c0: d895 113d 9740 823d 4477 73bd 05b2 ebbb
000000d0: dc0f c0bc 3197 1fbc fd11 42bd fad7 fd3c
000000e0: f6a3 af3d 80b4 b13c 20a5 1abd c6b3 863d
000000f0: 891d 1fbd f7ab 733d 3e21 2ebb d83c 6cbd
00000100: be56 5c3d ae82 ad3c bdbc 563b fa41 3d3d
00000110: 1103 a23d 0eb8 87bc 8657 96bd e32b 38bd
00000120: db6e 41bd 4e75 99bb 6c23 36bc bb76 373d
00000130: 622c 273d 97a6 743d 9b0b dbba b366 893d
00000140: 0a6c dabc 095c 5b3d 2247 05bd ea40 7a3d
00000150: 2009 14bd 179c e73a b90b c73c 9ef8 00bd
00000160: d67b c0bc b970 2b3d 738d c539 7d67 cabc
00000170: a8c4 8b3d 684b 77bd 9c92 13bc e9c1 90bc
00000180: 0ab3 483d 2e64 6e3d 9852 763d e272 ae3c
00000190: 23d6 693d e33f a13d 4022 a83c 1de3 653d
000001a0: 9166 17bb 0b47 4f3d 2627 1cbb 216f 61bd
000001b0: c0ab 08bd 0faf 20bc 725e 72bd 2f3a 1d3c
000001c0: f503 803c a3c9 23bc 3c93 d73c 6d2f 753d
000001d0: 1355 09bd cf2f 0abd 8fc4 493d 3eab 043d
000001e0: ab08 a0b8 aad9 edba d44a fc3c f822 72bc
000001f0: 7a7a 82bd 381a b93c 98b4 7c3b 62f3 903c
00000200: 3823 20bc 40fa 67bd e78d eb3c 0486 cebc
00000210: 662b 303d 07dc 9a3c 0365 5cbd 3c86 d43c
00000220: 5040 57bd 9a43 943c f63c b93c 180e 333c
00000230: fffe 73bc 1360 5abd db46 983d 5fd8 15bb
00000240: 9bdd eebc 82b7 b0bc 4be9 4ebd 4c0e 873b
00000250: b85c 9ebc 5d21 6ebc 25ce 7e3c 5f0e 7d3d
00000260: b6f4 9abb 3702 2fbd 319e 22bd 8b20 3e3d
00000270: 2223 16bd f278 a2b8 f907 e9bc 51c4 53bd
00000280: 7e8b 86bc 4354 83bd 4f3a 3fbd c992 6f3d
00000290: 15ec 10bd d7e8 913d a2be 863d e984 d23c
000002a0: 10d9 0d3d 50a3 6ebb 81c4 0dbd 3c93 23bc
000002b0: 0e29 7bbc f96f 0abd 5979 d5bc 384e 713d
000002c0: ebdf 4e3d 781c f4bc 97be 753d 3535 7abd
000002d0: f645 e2bc 2ab6 ce3d fd6f 8b3d 2b56 933d
000002e0: 2df0 8d3c 1d7b 843d b429 39bd 0c17 87bd
000002f0: 1310 4bbd b4a7 90bd 3a50 4f3d 4c02 0a3d
00000300: c757 ab3c 679e 56bb 3624 763c 76ba df3c
00000310: 953a f93b e4d3 8ebd aba0 883d 9320 a6bd
00000320: da18 eabc adb2 f53c 9c48 963d a332 b83d
00000330: 36d1 fcbb 2dac 963d b17e 52bd 78ab 21bc
00000340: b81f a53d dfa9 df3b f42e 8b3d 075d 643d
00000350: 5730 983c dd92 85bd e0bf 4abd 379f 68bb
00000360: 4616 2bbd a6d3 3d3d f82d 1b3d 5af9 7c3d
00000370: 4c58 3d3d 7987 be3c 60c8 693d d137 783c
00000380: 8f6c c0ba 1dc0 443a 7b27 413c 31cd d73c
00000390: b902 06bb eaa0 28bd bccb 6bbd bffe e13c
000003a0: 8903 e8bc e4b8 8f3c bb10 08bd f547 93bb
000003b0: 50c5 243d ff30 c3bc d556 963d 3498 9f3c
000003c0: adc6 3a3d 5834 e73c d5e8 5abd 8fa4 30bc
000003d0: 498e a23c 8a13 703d 494e 013d ca77 cbb9
000003e0: cb6e ad3d 153a 483d 4007 173d b849 33bc
000003f0: 15dc 9d3c 5e8e 5339 ea46 b93d 892e e43c

intra_modal_convs.0.convs.<gene___g_g___gene>.lin_key.bias f4 [64]
0.030706136 0.009997016 -0.0037332498 -0.03534544 0.05775067 -0.015418849 0.024120394 -0.0068514072
0.0343612 -0.0571904 0.03779187 0.025079738 0.0300805 -0.029926712 0.014892174 -0.03999122
-0.0056759063 0.06420889 -0.01164721 0.020055085 0.04741524 0.0424727 0.012365272 0.024830787
-0.00069634337 -0.064136386 0.01389328 0.036717746 0.01197414 0.053675346 -0.017349351 -0.06506716
0.053059127 0.0089342445 -0.012073062 -0.023348203 0.06420923 -0.056721095 0.032674626 0.0109638
-0.0442359 -0.05387009 0.014263438 0.012060593 -0.058755346 -0.05017954 -0.007995318 0.0030466833
-0.03751332 -0.019524766 0.05815095 0.06398672 0.03670271 0.047764182 -0.033333324 0.00994761
-0.0044336803 0.040575366 -0.021872511 -0.031513818 0.03650978 0.04554027 0.037983112 -0.056460947
00000000: 6f8b fb3c 86ca 233c 8aa9 74bb 61c6 10bd
00000010: f78b 6c3d 579f 7cbc 2298 c53c c581 e0bb
00000020: 54be 0c3d 7b40 6abd a6cb 1a3d 0674 cd3c
00000030: 616b f63c dd28 f5bc 4efe 733c d5cd 23bd
00000040: f4fc b9bb f37f 833d f1d3 3ebc 904a a43c
00000050: 7c36 423d dbf7 2d3d b697 4a3c ef69 cb3c
00000060: d08a 36ba f059 83bd a4a0 633c 5965 163d
00000070: 2f2f 443c aeda 5b3d 3a20 8ebc ee41 85bd
00000080: 8754 593d f060 123c 18ce 45bc bb44 bfbc
00000090: 2180 833d 6154 68bd d4d5 053d 83a1 333c
000000a0: b430 35bd e2a6 5cbd 32b1 693c cb99 453c
000000b0: 72a9 70bd 1089 4dbd cbfe 02bc ddaa 473b
000000c0: 91a7 19bd 67f2 9fbc b12f 6e3d 780b 833d
000000d0: 9555 163d 60a4 433d 8688 08bd 4dfb 223c
000000e0: 6848 91bb 5b32 263d fb2d b3bc a214 01bd
000000f0: 478b 153d 6f88 3a3d 2e94 1b3d 9843 67bd
